benchmarks/checkpoints/checkpoint.pt (torch, 51819 bytes, 15 tensors)

e0 f8 [24, 2]
00000000: 66bd 50b9 14d4 e13f 2947 252c b711 b23f
00000010: 11d7 cc3e e207 ecbf 7cbd ff65 5de8 8a3f
00000020: be3b 60ab 1faa ff3f 4f82 a72d 170d b33f
00000030: a718 d764 01fd f9bf e6c3 277e 4933 a4bf
00000040: 5947 87ec 6732 c3bf e030 85df a08c a93f
00000050: 5947 87ec 6732 c3bf e030 85df a08c a93f
00000060: cc83 a43e c3ac ff3f 428b ed55 9f1d b33f
00000070: 8ba7 e210 c040 f43f df6d 91ac 7326 b43f
00000080: 72c0 bcb9 4c33 f43f 2f93 b27f 9527 b43f
00000090: f652 2ac0 ca08 fabf d2d4 4a4d 8518 a4bf
000000a0: a6bf 939b e001 fabf f3b3 c2ea 2b59 a5bf
000000b0: 2b56 d44a c8ab ff3f 30ea 1e3b e107 b33f
000000c0: 3ccc 6301 e5e4 ebbf c156 c793 c2a0 8c3f
000000d0: f586 0b16 003d f43f a768 0b1e 7a34 b43f
000000e0: 750d c06a fe34 c3bf a6ce 4ebc 5fb2 a93f
000000f0: 1dfd da0a 7d0f fabf 2ce2 fa29 0c27 a5bf
00000100: 7a52 2ee6 9df2 ebbf e8cf 361a c076 8d3f
00000110: 8de1 5b4e 9bd3 e13f 11d6 b8ef df2c b23f
00000120: efe1 764b b5e3 ebbf bdbf 05f2 27a9 8b3f
00000130: 2b56 d44a c8ab ff3f 30ea 1e3b e107 b33f
00000140: a4eb dcac b84f c3bf 2d99 f985 3d5e a93f
00000150: b75f 7cad 83fc e13f b282 91df 5020 b23f
00000160: 8de1 5b4e 9bd3 e13f 11d6 b8ef df2c b23f
00000170: 0fea 647a e03c f43f 5e27 43d2 6f39 b43f
0.5571387881699763 0.07058281734250883 -0.8759623743596611 0.013138513255369182 1.9790341085788294 0.07441849579436986 -1.6242689074584094 -0.039453789377041734
-0.14997576760520806 0.049901034627142016 -0.14997576760520806 0.049901034627142016 1.9796783873537036 0.07467075202798149 1.2658081683716513 0.07871172869766195
1.2625243430484514 0.07872900359741374 -1.6271464830835476 -0.03924957817563669 -1.6254583432418968 -0.04169594994286987 1.9794390604996674 0.07433898633363678
-0.8716912295479982 0.013978500494811088 1.264892660249129 0.07892573579320815 -0.15005474293148394 0.05018901036910721 -1.628781359104159 -0.0413135339017042
-0.8733663078042604 0.014386654663077494 0.5570808916518658 0.07099723436916629 -0.8715464090265054 0.013506233285369146 1.9794390604996674 0.07433898633363678
-0.15087040367674576 0.04954712162434514 0.5620745075602745 0.07080560167515662 0.5570808916518658 0.07099723436916629 1.2648625165007876 0.07900141604764374

NeuralNetEvolution.0.weight f8 [24, 4]
00000000: 4e3e 207a add7 ae3f 43e6 b193 b4a9 d03f
00000010: d43d 017c 3afa d33f 52f3 656c c025 97bf
00000020: 2064 c003 3179 d7bf 3373 6f2f 8c59 ab3f
00000030: 6eac e237 c8d4 d3bf 927a 502b 8ad6 d3bf
00000040: baa4 47cf fd9f e23f 3427 9198 ea7e d83f
00000050: 7428 ba89 96e1 d4bf 79a9 d232 547e c7bf
00000060: 6bb9 5811 782d da3f 1c03 eed0 1c06 c93f
00000070: 32c7 e701 0e2d a13f bf70 9ba2 f91e d73f
00000080: e8d5 c920 482e 35bc c807 7d01 c074 023c
00000090: c6e8 b581 63fb 723c 66db 7062 a023 55bc
000000a0: ad7a 3528 5d5d c2bf cfbb 32a7 cf6d da3f
000000b0: 3648 2eea 75e5 d33f 24d1 7a47 d74b d2bf
000000c0: 28e8 ab95 184b debf 5637 b218 6743 e73f
000000d0: f489 1685 cc56 d1bf 7bc8 a420 32aa d63f
000000e0: c9ba 6ca7 8c75 e23f 7c7d 1f4a 83c6 dcbf
000000f0: a285 f354 7b7f dc3f cea2 4084 63ed d6bf
00000100: 896e 1904 d984 d0bf 9ed9 d52a 8864 e13f
00000110: be5c 0e3f 1fb2 7cbf 9860 05f6 39e8 e8bf
00000120: bd61 540e 0509 d33f 4d79 deb4 8561 cebf
00000130: 2d21 8ef5 fe78 ad3f 5fe5 37c2 74ce bdbf
00000140: b603 d41b c361 d13f aa38 afdd 62d6 c23f
00000150: 58cc c73a 9af8 c63f b01a 14e2 c87a 85bf
00000160: d3bc cce2 85ab b1bf 4f1a cb22 197c e33f
00000170: 7063 f3d8 b3dc d6bf 43dd 2e7d e243 ea3f
00000180: 2bca 7cb1 0a68 d33f 4cc6 0413 f456 c03f
00000190: 329b c54e 16a5 cbbf a92e 0350 029d d03f
000001a0: 2388 6b82 7bc4 d5bf 68d1 5c02 6623 d9bf
000001b0: e6ee abc9 46d6 c43f d896 4712 6880 d33f
000001c0: b36c 6c1d eced c2bf d630 6d38 94d6 cebf
000001d0: 3268 4064 6413 d43f 82c6 80da 7f64 a2bf
000001e0: 219a faf9 d67b dfbf a05e a359 66cf d43f
000001f0: c211 092a e48f dc3f 3b88 bd93 f3ef d0bf
00000200: 9a82 7dfe e719 c6bf ab74 6b95 4f1d e7bf
00000210: 69b6 87ed 29eb cc3f e72d a327 d14b b0bf
00000220: f4f0 ee0b 5bf1 ccbf c019 ddf6 4c4b c5bf
00000230: 9342 b60f bed6 e4bf b72d c0e5 e41c a3bf
00000240: 8607 6a47 6182 c6bf 2197 c5e8 6c41 c7bf
00000250: 264f 5b43 176d d53f 60f4 c87e 814f c83f
00000260: 0505 cfc7 00e9 c23f 9289 9a87 76eb a13f
00000270: e311 6552 528e c63f 31ec a8c9 4a08 c23f
00000280: 809f 0b9a 7a8e b8bf a7be b0df 4504 a2bf
00000290: d207 d8ba 3fb2 a4bf 90d4 9036 e1a4 b33f
000002a0: 0a6b 4b2c c420 b33f 344e 2cbf 644d d43f
000002b0: f83b bc86 e489 d23f 26e3 2163 274a c0bf
000002c0: 4a26 3acd 9cbf ce3f a5bc a6cf 6aa9 b43f
000002d0: 50fa 794a bd07 a43f 92e5 22a8 8219 b9bf
000002e0: 9b77 8633 056e cb3f ccb0 41ef cc00 b5bf
000002f0: 51e2 da14 d7c9 d63f 6afa 901b f121 cf3f
0.060239239843323675 0.2603579943021012 0.31214773282860375 -0.022604948631385575 -0.3667719399105085 0.053417568960617244 -0.3098621888881955 -0.30996946554106686
0.5820302055773461 0.38274636172410514 -0.3262688012115469 -0.18354275209032858 0.40902520841600304 0.19549904061934675 0.03354686520823548 0.3612655723534423
-1.1482128229524076e-18 1.2506309177427733e-19 1.646424932280484e-17 -4.58382594550319e-18 -0.14347423995328282 0.41295234039256185 0.31088016385286055 -0.2858789632839651
-0.47333349815710557 0.7269778711649717 -0.2709227847755351 0.354137927893255 0.5768492956175005 -0.4496162628037934 0.44528086944600365 -0.35823905864030514
-0.2581083812744756 0.5435219608905759 -0.007005807929906625 -0.7783479504678494 0.2974255218446407 -0.2373511441373445 0.05756375072002338 -0.11643151990565091
0.27159192769618856 0.14716754745899624 0.17946174497737633 -0.010488099479073781 -0.06902348315337585 0.6088987044866573 -0.35722061335177724 0.8207867093068802
0.3032252057338691 0.1276536076416498 -0.21597555967601917 0.2595830708857912 -0.34011733757336254 -0.3927855513641334 0.16278920027968197 0.304712312556473
-0.14788581310935953 -0.24092343096925245 0.31368360319322897 -0.03592299978516868 -0.4919335786056838 0.32515867952086275 0.44628242592832745 -0.2646454756524041
-0.17266559530527986 -0.7223279875139687 0.22592662904883135 -0.06365687577925137 -0.22611558993037983 -0.16636049322023716 -0.6512136752008523 -0.03732981972288079
-0.17585388171215416 -0.1816841255742299 0.3347833783893627 0.18992632570908352 0.14773568874628765 0.03499956517522941 0.17621830962356375 0.14087805601761397
-0.09592405568002782 -0.03518884997936072 -0.040422431524362104 0.07673461515590163 0.07471872407351668 0.3172237269329543 0.2896663013243024 -0.12726299610565056
0.24022254963738227 0.08071010179149825 0.03912154707085291 -0.09804550747766985 0.21429505363351783 -0.08204346505380328 0.35606934582350386 0.24322332235347527

NeuralNetEvolution.0.bias f8 [24]
00000000: 878a 028f d034 c83f 4439 5994 c0d4 e73f
00000010: cba8 282e 3fa6 dd3f d420 7416 82a2 b83f
00000020: ab00 7f19 ad0e e8bf b5cc 34ba f9de e73f
00000030: 12f3 ba74 b74d cc3f 69e8 eb9a 62c8 dc3f
00000040: 45d8 2b58 9cc9 d03f 354a c8a1 cba9 b7bf
00000050: 7047 783c ef58 863f 2de9 5828 f81c ccbf
00000060: 2f47 43ab 47fa c73f 6340 31fb 1404 c73f
00000070: 94b1 36f8 102e a4bf 7a09 5edf b600 d13f
00000080: 5e14 967c a2bc df3f 1763 c8d6 2e49 e03f
00000090: a090 bfdd 75c4 e53f 6533 cbac c02c ea3f
000000a0: 6dfa 7b79 5c5e 923f 442b 2455 6c88 e43f
000000b0: 3612 c629 f1f0 dd3f 4b2f b530 8dcb d93f
0.18911177618891292 0.7447207353050449 0.4632718992967397 0.09622967765983798 -0.7517915246935635 0.7459686886635583 0.22112172317238127 0.4497305405526562
0.2623053418204829 -0.09243462276234811 0.010911816628354137 -0.21963407487948797 0.18732543814126631 0.1798120714688621 -0.039413957881467315 0.2656686002084353
0.49588834921479996 0.5089334673858471 0.6802319842359061 0.8179629683378208 0.01793808452111494 0.6416532195010878 0.46783093528236763 0.40304879910103314

NeuralNetEvolution.2.weight f8 [24, 24]
00000000: 18ea d93b 1073 92bf df89 c7ac 3025 a2bf
00000010: 2f02 a97b 5bd2 b53f 2795 ee65 030d b53f
00000020: 7bec 7316 2472 763f c3f5 9bc0 676f babf
00000030: 4392 b6c4 5406 db3f 7da6 4720 5363 a63f
00000040: bc9d afc2 2e33 cfbf 8d7b 3c78 a3bd b63f
00000050: 34eb 1222 9c1d a0bf e19d cdee 08b7 df3f
00000060: cc5b f830 a752 c43f 428a 6aeb d4a8 b43f
00000070: 28c0 996c 58d2 a13f 4b3e 6c54 c989 babf
00000080: f77f a68a b1a8 a33f 4736 9538 8162 c33f
00000090: bac6 5dde 57b0 a0bf 6c6d e168 6f6b c13f
000000a0: 9384 a535 ebc2 933f 5190 21d5 9120 b9bf
000000b0: 02fc e816 845d ab3f 337c 94d3 2851 c13f
000000c0: ce11 9eea df8e 463f 9a28 51f7 ae2c 5cbf
000000d0: 050d bc62 d134 38bf e922 df0a f2c5 32bf
000000e0: 1e96 78c9 8e99 4f3f 2440 dbd5 3cd8 3e3f
000000f0: 4c18 92fb af20 75bf 3dbf 169c b4ae 82bf
00000100: 19a2 bb75 af1d 733f 8abc 5c07 cd5b 52bf
00000110: ab6a 13ee edae 4d3f ae6f 8767 77c7 77bf
00000120: b8b6 eb3c e51f 3fbf a77a 4e00 ea8f 79bf
00000130: 5fc6 e927 6157 5ebf 106b 6e05 d6a2 673f
00000140: 6798 8d1b f246 83bf 4a2c bef9 dd0c 59bf
00000150: 96f7 1bc6 798a 83bf c61d d5b1 a79d 7abf
00000160: 361e a5ab 37ce 42bf 433b 1505 1c79 363f
00000170: 16fe 22a7 c47c 50bf 05d2 2622 99c9 74bf
00000180: 51a6 026f 234c aa3f 3b33 d164 4cc5 9ebf
00000190: 7da5 0c53 17a6 c43f 02fe a860 09b5 ba3f
000001a0: 8774 78b2 36b7 95bf df9f 84db f752 b53f
000001b0: 8599 533d 45b3 babf e528 ff2a 8b65 c93f
000001c0: 5515 10c7 1fb5 a4bf 4ee3 fef0 dada 8a3f
000001d0: 6304 bcbd 78f9 b03f 1f5b 8a01 733f ab3f
000001e0: 9e6c 92fa 97d6 a73f 4b20 b28c 70d0 b2bf
000001f0: 42e4 f379 b26b 9abf fc43 e93d c172 a5bf
00000200: 6a27 9040 b252 9ebf 3fd4 cb6e a61a 91bf
00000210: 6e37 6f3e 447a 55bf e71a 1c54 b7b2 c63f
00000220: 6748 da92 60b7 91bf 2d1f 34ba 3f0f c13f
00000230: 619a 81ac 0e90 b63f e260 f8a3 6790 c33f
00000240: db90 876e 8c38 c6bf e236 a61f 1c21 c03f
00000250: a093 2d07 9f24 cf3f 09e7 90af dad2 a5bf
00000260: b54d 258b 9303 afbf 3e48 5819 0e77 c0bf
00000270: 2620 5778 2b6e c23f 579c f89a 5d08 d03f
00000280: a1b5 9c2a d6be bbbf baea 9125 2e96 ba3f
00000290: 5ff8 4652 5c4a adbf b37c 03b9 9b8d cb3f
000002a0: 90de 6b2d 533d c23f 84ce 97b6 12f0 b63f
000002b0: b328 4b05 686f 94bf 8bfe 1df4 4af9 d0bf
000002c0: b023 3241 85f9 d83f c5dc 1989 96db cf3f
000002d0: a2b6 7669 e416 93bf ae70 e9cd 1c96 9e3f
000002e0: 1e70 86a5 e976 8e3f 837f 44fe fccd b6bf
000002f0: 59d3 5ee5 52f4 af3f f774 d606 d45c a53f
00000300: 6522 0071 0f43 36bf 40fe 5763 3d67 51bf
00000310: 46ff 6183 5397 53bf 3768 713f dd9a 4bbf
00000320: a409 694f 6bdf 433f bd48 5937 f9b6 48bf
00000330: 9f45 4007 18ec 61bf 4d27 51f0 042a 62bf
00000340: d61a 1ec4 a837 5f3f 747c d840 bc12 36bf
00000350: 55a1 b7fb 583a e1be c124 0c61 911d 64bf
00000360: ca9a 8a7c a711 40bf 48f8 ea48 1fe8 67bf
00000370: 7a27 44d2 7115 46bf 2f88 d40e cf30 423f
00000380: 526f 565a e62f 6cbf f427 e7d2 0edb 4abf
00000390: f1fb 34a1 a933 70bf dc30 0f0c 4e2a 69bf
000003a0: 6f07 3c57 ac19 31bf 3083 98b5 9e36 50bf
000003b0: 2fe3 bdb9 ade8 4ebf bc69 0833 4f28 62bf
000003c0: 66ff ebb2 6831 ac3f 18d0 e8de fddc d13f
000003d0: 2058 166e e11a a33f 43ae 6461 a1de b3bf
000003e0: 3828 d571 5390 81bf 5b96 fc5f 845c cb3f
000003f0: dcf9 9e7f a842 76bf bf97 c4ca d217 d2bf
00000400: 2cdf efe8 bab6 d33f cea3 8d62 d921 aebf
00000410: 9074 f95d f16e 843f 4622 c81c eadc d1bf
00000420: 736e da94 f32a b9bf b91b 5e7e 1c7d b63f
00000430: 572a 0cb4 caaa ab3f 45bf 0dcb cb80 c23f
00000440: e881 de5b d884 c03f 09f0 d754 d53d d13f
00000450: 5f76 81eb 6738 b93f 783b 71c9 b426 b03f
00000460: f34d 089a cf8d 993f e28f 8f34 1c2a c63f
00000470: b1f5 6a5d 74f3 a8bf 5f5b 754a 447b a63f
00000480: 608f 7432 a7e1 a63f 27c2 7755 7c91 94bf
00000490: f55e f526 4583 ba3f 487a a3eb 9e7d b33f
000004a0: f874 a5ff aad6 8abf 6a7e d34a f40c 9f3f
000004b0: 3984 a875 7738 a8bf 0744 f588 7aa9 c03f
000004c0: 4ead fb99 65ba 99bf 3221 a00e 0190 7d3f
000004d0: 116e 6732 5376 a83f d3aa 5ef9 4361 ac3f
000004e0: c9ee 87fb 509d a03f cbac c6e0 4f3a aabf
000004f0: fb07 458a 2286 96bf b5ef 2a51 6538 a6bf
00000500: 3e62 adf1 c465 a1bf 3f28 6759 67dd 95bf
00000510: 797c 51b9 32d4 983f 8ff0 e34f 9e1a c23f
00000520: 1a9f c1a1 8440 86bf 9837 f3e8 d248 b63f
00000530: 0f5c a850 30c4 b13f 7320 d8bc 4497 c03f
00000540: b8ed 06af a8ba b6bf 4737 34c8 5450 b83f
00000550: a09b d0d3 80a9 b5bf 42e1 aa4f 990e babf
00000560: ce5e 41bb 02aa 9dbf b46c 922f 3575 c0bf
00000570: bcab dcac 85e5 983f a818 8a21 6b8c cc3f
00000580: 66d1 266c 235f 203f 8174 e43d 6b2a bc3f
00000590: b7b1 b1a6 edf9 8d3f 9f09 8dba 5086 913f
000005a0: 2be9 e98b 8f30 9bbf d23f be7f 3d62 b43f
000005b0: 3358 cfc0 74ab bb3f e8a3 be82 9b1a 243f
000005c0: 937f b2d3 2ce5 dd3f 49d8 ecc1 7af8 78bf
000005d0: 52cf fc40 cfe7 a1bf 4324 7918 bda6 50bf
000005e0: b8e1 782c 939e 9a3f 6747 6c79 848f c4bf
000005f0: 2f3e 5835 2d69 813f 74be 2c4d ba08 c03f
00000600: 65cf dae8 c173 c83f 599a efbe 1669 b23f
00000610: 82d3 9ef4 4f4e da3f 8df8 e521 0c2a cd3f
00000620: 71be 15cb 4789 b1bf 5025 dc35 4f99 d33f
00000630: 91a6 30d5 3d60 c7bf 6e45 2f9e 9def a43f
00000640: a8c8 f6e7 8249 cf3f 5f6f 51ea f796 afbf
00000650: 3508 478e 130b c33f 6439 6fbf 5f28 b6bf
00000660: 5e13 007f 4394 b53f 3864 9b9f 898d c0bf
00000670: 3f2a 0a2a f9d9 babf e146 096f ffca c43f
00000680: 4805 eadc 2169 c2bf 190b 9897 e362 acbf
00000690: b1e2 1752 004f bdbf 71eb 6805 fb97 b43f
000006a0: 64f3 101c 17b9 95bf ce28 a0ad baf3 cb3f
000006b0: 1101 1b0e ad08 c43f 1b07 499d 868b a7bf
000006c0: 6024 eb8e 41a1 af3f 4d7e 3a06 26d8 b2bf
000006d0: cb94 97f9 527a c73f 7706 228a 9daf c43f
000006e0: 346a d858 fbc1 9fbf 929c 5a01 3c03 a5bf
000006f0: 73c3 81a4 0f20 c6bf 7748 8d48 c6b7 d13f
00000700: 9201 8a6e a6db bdbf 8746 e555 4d30 a13f
00000710: 58cc 52a8 90af ba3f 76d8 71cd 66c7 b53f
00000720: 0d1f 5031 11f6 b43f 2533 9ae0 57e2 c3bf
00000730: d8df 37b8 8c57 b2bf 791f a753 df6c c2bf
00000740: 7563 a6e1 1eb5 b3bf d79c 0a3a 49d1 ae3f
00000750: 9eb7 e803 b2c0 b93f 92c8 d9f7 6758 b43f
00000760: 5441 ffdf 5e4f a1bf 5c29 01b7 91d9 c13f
00000770: 56ea abdc 9302 c23f 03ce 77ee ded3 d13f
00000780: 0728 5e6e fe2d 9bbf 58ca a4a9 695a cb3f
00000790: e7ef e47a 5c8a a2bf 7b07 08e1 8348 c5bf
000007a0: bc32 600d 3a74 a6bf ca94 c7f6 4067 cd3f
000007b0: 79ef da76 f392 d13f 7400 500b 5565 a3bf
000007c0: d085 7092 9752 af3f fed0 fa66 2c70 723f
000007d0: ecaa 9211 518b 93bf abf3 b617 7981 afbf
000007e0: 8de8 68b8 e512 b3bf 7385 9939 d01a d53f
000007f0: 9f4a fa05 0aab c23f ea15 d031 ee5d c83f
-0.018017057087925975 -0.035439988223305845 0.08524104851768109 0.08222981680463147 0.0054799470592526945 -0.10326240970967775 0.4222614213015598 0.04372653740922503
-0.243749470769428 0.08883115468459675 -0.03147590557042293 0.4955465633451848 0.1587723721611084 0.08070116755929127 0.03480793309870506 -0.10366495429138316
0.038396404433342406 0.15144362700304922 -0.03259539212639369 0.13609116192933912 0.01929824366505224 -0.09815322354694557 0.05344784526504755 0.13528929072433157
0.0006884187070999527 -0.0017196377423425503 -0.0003693591304314156 -0.00028645667304920283 0.0009643504335527552 0.0004706524394864095 -0.005158126289762487 -0.00912228680940041
0.004666982069217806 -0.0011205198511097547 0.0009058629767893697 -0.005805460380056289 -0.0004749235785500394 -0.006240762774636955 -0.001851887587374888 0.002885263452708904
-0.009412661996702277 -0.0015289466600474527 -0.009541465147318278 -0.006498007828958879 -0.0005738994434886849 0.0003429120452737475 -0.0010063095510729528 -0.005075071503985122
0.051362139988964224 -0.03004950871791155 0.16131869845530025 0.1043248997675548 -0.021206717150665823 0.08329724416091676 -0.10429795024137974 0.1984113655037795
-0.04044436745611316 0.013112745742419964 0.06630663520992779 0.053218454301875655 0.046559094750784555 -0.07349303660350974 -0.025801457112695887 -0.041891135032194854
-0.02961233634054087 -0.016703224670852498 -0.0013108889049706324 0.17732898337290878 -0.017301091159034245 0.1332778605649251 0.08813564025477084 0.15284438616141133
-0.17360072514487154 0.12601043267607454 0.24330509043207105 -0.04262431519641836 -0.06057416032367816 -0.12863327252904527 0.14398711563103567 0.2505105985059734
-0.10838068523727042 0.10385406892047913 -0.05720795158730207 0.21525904210918653 0.1424964877876289 0.08960072477185049 -0.019956231425376014 -0.2652156242329304
0.39022952429564395 0.24888879484544738 -0.018642014443392647 0.02986950880800581 0.01487524544136681 -0.08908063132957804 0.06241091775829117 0.04172384818523683
-0.0003396904658079846 -0.0010622119419848725 -0.0011957469519358762 -0.0008424358665124536 0.0006064676261490665 -0.0007542340160376009 -0.0021877736380779412 -0.0022173019847614773
0.0019053600412647829 -0.00033681007411873816 -8.214912546614684e-06 -0.0024555053172475587 -0.000490385799896875 -0.002918301680749944 -0.0006739431160280717 0.0005551348710108923
-0.0034408091621126813 -0.0008195707685498808 -0.003955519310067311 -0.0030719303472094128 -0.00026092965639189827 -0.00098958491287977 -0.0009432647961907565 -0.002216486631607865
0.05506446060280616 0.27911326187609253 0.037314457596196116 -0.07761582019582484 -0.008576061164280543 0.21376089751099667 -0.005434663960782928 -0.2827040653377217
0.3080279612326986 -0.05885199859660127 0.009977231674549253 -0.27910855112762467 -0.09831163772690292 0.0878465469851183 0.05403741309972492 0.14455554404002605
0.1290541122989588 0.26939900670527145 0.09851693629885848 0.06309060972237812 0.024955028320688254 0.1731601006168822 -0.04873241081575531 0.043909200753367676
0.044690346631141464 -0.02008623382238475 0.10356552315840502 0.07613557103057034 -0.013104759146410391 0.03032285410597383 -0.04730580626733922 0.13017207801252104
-0.025125110171683666 0.0072174111646819295 0.047777748015246264 0.055429577055596056 0.032450228409258104 -0.051226135433660135 -0.02199605912142742 -0.04339901557747742
-0.0339795632377826 -0.021352400619243147 0.024246971665317283 0.1414373293008606 -0.010865245996867712 0.08704870402581688 0.06939985245877288 0.12961634846601874
-0.08878568909761142 0.09497575652877997 -0.08461766406308735 -0.10178526110656086 -0.02896885173717472 -0.12857689688539653 0.024313057590159323 0.22303523194950015
0.00012490565684476345 0.11002226124806393 0.01463685669860913 0.01711393488518242 -0.02655243197885075 0.07962402695397877 0.10808496196054378 0.000153380854837764
0.4671127383571669 -0.006096343537867873 -0.03497169178299821 -0.0010163160931304794 0.025995540227286645 -0.16062980584006967 0.008501389685107245 0.12526634949016435
0.19103263730869027 0.07191602860948744 0.4110298050757636 0.22784568457786172 -0.06850098331573819 0.30623226413498106 -0.1826245585410118 0.040890622672700924
0.2444308884274211 -0.06169867263153494 0.14877552458898582 -0.0865535585755644 0.0842935738620105 -0.1293193845110936 -0.10488850857124364 0.16244500085536287
-0.14383338248084443 -0.05544196343909941 -0.11448671344977403 0.08044403917385325 -0.021213875854516742 0.2183755252629624 0.1565147704004706 -0.045986372661458406
0.06177716130839239 -0.07361066486418473 0.18342053591837834 0.1616093563534837 -0.031013419435206482 -0.04104030148055772 -0.17285342724383276 0.2768417080416223
-0.11663284491260686 0.03357164071588863 0.10424141034563783 0.08507387653102846 0.08187968686990761 -0.15534494845305705 -0.07164840219036195 -0.14394752106295153
-0.07698243149788005 0.060190475783480295 0.10059654803691706 0.07947397042315377 -0.03380867466296658 0.1394521850182383 0.14070366168000942 0.2785565689839304
-0.02654264019614774 0.2136966780031624 -0.03621186256574998 -0.16627548683032586 -0.04385548985746854 0.22971355485711903 0.274594179219768 -0.03788247836200834
0.06117700255004943 0.004501508184763246 -0.019086138436857178 -0.06153467573628942 -0.07450710060303063 0.32976155877084706 0.1458447007358545 0.19036652977244667

NeuralNetEvolution.2.bias f8 [24]
00000000: 1f82 e66a da1b af3f b56c eac2 9392 d5bf
00000010: 9a58 cd06 2dee be3f cda8 4d9d 6c90 b53f
00000020: f7f8 9b33 4977 dabf c9eb 8a5c d383 b53f
00000030: 4e1c 3bc6 eab0 953f 4ed6 d094 89da bd3f
00000040: 1df0 8ca4 5583 d03f a563 3d9d 8c3c d53f
00000050: 3fb1 3165 fd04 ae3f bbdc 1e3f a196 b33f
00000060: 17e1 d313 3e5c c2bf 22c4 ce2a 8c7b d33f
00000070: 516f 6455 4660 cf3f cdd9 4aa3 42d2 c23f
00000080: e266 c56f 5906 d73f 6d38 cbcb 3a20 d53f
00000090: 5f04 b74b ed54 b73f 4548 707d d645 b33f
000000a0: d751 1cb4 2fd7 df3f 41f9 bd6a ecaf d63f
000000b0: 3485 c4bc 043e a2bf 9fc0 cc93 ffab d03f
0.06075937800347141 -0.33707136187303927 0.12082177558963494 0.08423498955167759 -0.41353063621490044 0.08404274949400227 0.021182697629026408 0.11661586650083075
0.2580160242976051 0.3318206344170512 0.058631819346234064 0.07651717940358342 -0.14344001739642273 0.3044157426875832 0.24512557191416787 0.14704163525830297
0.3597625342859897 0.3300921430753821 0.0911396322108131 0.07528439104524505 0.4975089320080576 0.354487518539731 -0.03562941364567465 0.26049794610572435

NeuralNetEvolution.4.weight f8 [24, 24]
00000000: 3675 8a6b 22c5 d43f 1bc1 4a15 bf4f a7bf
00000010: 34ad c83c 77b0 bfbf ace0 655f 6b44 d13f
00000020: 3fd4 85ee affd 87bf 016e e68f b2eb a2bf
00000030: 4083 1f80 77cf babf 9a70 62e3 4efc ce3f
00000040: 38fb 0929 8adc ccbf 52c6 b7b2 7694 c6bf
00000050: 20bb 4922 f459 c23f 3886 8e72 f89b b1bf
00000060: 4912 ab02 62fd 81bf a593 18e8 5e56 7b3f
00000070: 2782 0b35 38d8 bfbf 147a ef02 12fa b53f
00000080: 762c 775a e764 9ebf f9f6 eee7 ebfa a7bf
00000090: a650 148e 6364 d33f b855 c081 c147 6e3f
000000a0: ccfe dfff db00 b13f 6c04 486a a751 b63f
000000b0: 4848 0cd5 7df3 d83f a7d1 6076 a346 9dbf
000000c0: 5b1c 4c63 688c d43f aa54 9f9e 634b a3bf
000000d0: 2927 bd7f d4c6 c53f 16b7 4624 ee5b d13f
000000e0: 4277 5d4a 6294 97bf 6e00 c32c 4606 b8bf
000000f0: e328 7132 23aa c03f c260 5605 0dd4 c83f
00000100: 3a84 8418 5a62 9a3f 19e0 e365 9645 ab3f
00000110: c11b e8e6 6d3e b93f 31a9 6ed1 bead be3f
00000120: 5b29 af29 17f3 7fbf f4b6 f5e5 5ac3 af3f
00000130: 6ab0 e62a a4da bebf 63b6 6248 9b64 cf3f
00000140: eafa 0f7b 0799 b9bf a076 04d3 48ae b4bf
00000150: 403b 0256 00e8 47bf 8a6e bc00 ef0e 703f
00000160: 134c 4dc7 ac05 5dbf ee77 bb90 b47a cc3f
00000170: 69f2 2f6b 4fb2 d43f d0c2 2a19 14e6 843f
00000180: c259 407a 7e36 c1bf ada7 ea22 9180 793f
00000190: 394c 393c dca1 96bf 9eb8 f59e 59ba b5bf
000001a0: 5b63 ddcd 1d04 733f c9cf 3e98 20fa c53f
000001b0: b6ac 5aed b146 90bf 28e2 53d1 6b75 b2bf
000001c0: 01fe ec49 9258 c03f 5942 311e 5307 b0bf
000001d0: 364b 8f11 ccef 9d3f 9a1d c47d ce21 80bf
000001e0: b050 9f0c 6389 623f 039b 31c8 89fa 8dbf
000001f0: aca6 b10b b5ff c73f aa42 4dc0 cf80 babf
00000200: 3548 bdb7 5911 cc3f 9afe dbd7 a627 d43f
00000210: d811 9ee2 c251 833f 3d74 4924 cc13 53bf
00000220: cd3e 3fe0 d381 c33f 86e8 9dd8 5c70 a8bf
00000230: 4609 69bc ff4d c2bf c66e 9bcb c90d 8fbf
00000240: 4c34 6dc0 1b42 d1bf 51f1 680f f810 9a3f
00000250: 6337 91b4 cf54 92bf feb5 07f2 15da c5bf
00000260: 3a68 46c6 ad4f 933f 981d 0122 610e cd3f
00000270: 893b 5a3e 9e47 90bf ab7a 8c61 ab49 c2bf
00000280: f1bb f104 30c0 cf3f 3eb2 6d68 25e1 83bf
00000290: 5880 7ccd c8b4 a0bf 4d8e 077d 0967 803f
000002a0: 55e9 3498 3dd8 823f f09b ef80 e312 9ebf
000002b0: 6233 b2d5 34ae d43f e6b7 71a9 361e cbbf
000002c0: 8805 1e96 4cf8 d23f 893f 45b3 4b4f de3f
000002d0: 0168 ce78 15f9 9fbf 35bd ae62 d17e 73bf
000002e0: 9b74 2d11 8b18 c83f df25 cf42 d7c2 b7bf
000002f0: 781e 7d0c aa37 cbbf 59d6 a9af f66d 9bbf
00000300: 9cbd 81ea 3c9d d13f 4549 88a9 2138 97bf
00000310: eaad af2e b6cb 763f 730c 2c38 6834 c53f
00000320: fd81 6b2f 59ad 91bf 29c2 445c c55d b9bf
00000330: 3d67 809b c094 bb3f 9cc7 9265 3c34 b13f
00000340: 10bb 91bc 678c 7bbf 71f3 8e64 ba9a be3f
00000350: cf2e b3fe 2430 943f e9a4 93cd ff0a b53f
00000360: 62d3 cfb7 a25e 7dbf 80a7 d2c8 bd8f b33f
00000370: a87c a4a7 776c b4bf 1cfc cb0b 7f46 cb3f
00000380: 2ef6 7daa c184 b0bf e924 a10f c09c 843f
00000390: 6e3c d5d8 283f a4bf be27 1bb5 5d51 703f
000003a0: 2223 7703 bc29 953f 3a2c 0681 4006 b93f
000003b0: bea9 ba83 646f d43f 0124 dd66 8bcf af3f
000003c0: a04c 7451 dced b7bf b781 b8fa 71c2 933f
000003d0: f564 eb1e 9b79 b23f 8d5e e76e a818 9c3f
000003e0: d85e 97d1 e3b7 7fbf fde5 649f eaed bb3f
000003f0: 7ddb 7901 fd71 b33f 68ce e810 7eb8 c8bf
00000400: d8b4 6720 38f3 d63f 71c7 58f8 3f3c 9a3f
00000410: 70d3 0723 a2d3 bfbf 3bb3 b896 e48a ad3f
00000420: 0ec5 c162 3058 803f 9d6d 01bf 667e bd3f
00000430: f9ec 10cf 8fb1 d63f 81e7 8940 87b0 b2bf
00000440: c89c 8fb3 32ee ba3f 58ba e30d 6aac c73f
00000450: 37a8 ad11 4f65 a2bf b2d3 2e5c 931b 40bf
00000460: e934 bc6a e973 be3f 8ac7 4543 b7ce b63f
00000470: efb3 bcc9 d56b 823f ee88 a530 1ec1 83bf
00000480: 46cc fb05 5841 6dbf b1bb 8f43 931d 83bf
00000490: 7110 2add da1e a83f 2eb4 3df2 888a ae3f
000004a0: 179a b9d9 35d6 79bf a5d5 a789 8239 96bf
000004b0: 5c5f ff42 8f48 c03f d915 9937 728e adbf
000004c0: 48cf e50a 1195 d13f 5e99 c0ef 75e2 a53f
000004d0: 2020 10b2 e747 adbf 5959 b4c2 0911 b43f
000004e0: 4471 2362 e78c 64bf f387 514c 0093 b93f
000004f0: 4787 3e68 8a1d d13f fea5 a189 d257 b53f
00000500: 7a57 8ecc e197 9e3f 2aa9 296e 8d6a b23f
00000510: f67f c143 95ca a3bf e8d2 0087 ef17 633f
00000520: b504 58a6 1a83 b43f 51b0 d38a 6cc8 c33f
00000530: 7b99 3752 2f8d b03f 08f4 56fd e04d a63f
00000540: 7720 843c 9204 a33f 3b8a 087b 5bf4 6dbf
00000550: e3e4 46f0 db9d a43f 24dd 80ca 31f5 943f
00000560: 4bd9 8bf2 fa86 70bf 7498 e170 ccb4 9cbf
00000570: 5a6f 70ce f965 a33f 3f0a 5982 dd29 9ebf
00000580: d03c 38e2 ab75 b63f 6806 bbc8 f2e1 b53f
00000590: e6b6 2f34 2f98 b1bf 3c28 18b7 dfc0 963f
000005a0: 79fb 5b26 7704 5dbf 921b f215 9c4b a33f
000005b0: 4df3 566d 5b5b a63f e7f0 4f22 f54c a43f
000005c0: 1bc1 4f37 623c 85bf cda4 3735 4256 943f
000005d0: 22e4 b165 6c05 9fbf 316d d4e7 2505 543f
000005e0: cd15 a2fe 7dd7 7d3f 6873 4f66 019f b23f
000005f0: 8602 9411 dc62 a23f 06ee 8bb6 8da2 963f
00000600: 2f60 213d 576c 90bf ad69 32b7 7cc2 94bf
00000610: fb9b 7190 2d7c b2bf dfdf cc5c e1b7 b63f
00000620: b826 7ec0 990b 94bf 0ec0 cd16 1af8 ae3f
00000630: 9092 f348 f26d a6bf 656b 10fb 734b be3f
00000640: 8557 30e3 af43 b2bf ab9b ee3b d1e4 bdbf
00000650: 34d2 c0a3 560a c73f 6153 3098 d707 9ebf
00000660: d45b 84e0 19c8 82bf 73a2 9e2e 66e8 8abf
00000670: 45a0 b9c7 9b82 b1bf 2006 31a7 8b01 a1bf
00000680: b5da 86e6 3442 833f c65b 9f3e 683f b4bf
00000690: 0e03 e6c4 6399 cf3f 2f5b f9fb 536c 743f
000006a0: 2a49 2e07 59c3 a33f 32d9 0d12 6db1 93bf
000006b0: 485e e864 a62f b3bf aebc 4f2f 6017 833f
000006c0: 0be4 a739 b6b5 8e3f c22a d628 36b9 89bf
000006d0: 1c6e 0f26 6316 c53f bc5b 16bb 2dd1 ba3f
000006e0: 2ddf d921 3007 8abf ae6d ad2f 193e 713f
000006f0: 1f1d ff79 e008 913f d3a5 cbfc ac12 97bf
00000700: d4a7 45f4 59d4 c73f cdf1 2fe1 beac ca3f
00000710: d56b 69c3 3457 c1bf 95f3 8856 3f7c b13f
00000720: cf68 5963 ff4c 77bf f7b7 5a0f 3bac ba3f
00000730: e932 456a 1a40 c43f 6192 6bec 505a b93f
00000740: 617a ae6d 2bf7 9dbf c75e fb11 b952 9b3f
00000750: 339d 591a cf3a 9dbf 3940 e75d 8990 6f3f
00000760: b3ae 0a43 69ad 9f3f 1d75 4244 5734 c63f
00000770: efc4 ffd8 e9ba b23f 8eac a74d 315a b03f
00000780: e490 ae8f d7ec b53f 1fbd 0b59 2558 81bf
00000790: 9c5d 3c24 9df6 b33f 59aa 5600 1f1f aa3f
000007a0: 0a04 5983 30b9 82bf a5ef 7a98 63f6 a6bf
000007b0: b859 e595 348d b03f 12ab 4a56 f538 9dbf
000007c0: 02fe 6a3f 9afb b63f e1da 305c 83b3 c33f
000007d0: 1db2 69d5 b4ec a8bf eb71 12b1 cc78 a43f
000007e0: 1375 616c 93c2 70bf 524c 6b2a 2825 ac3f
000007f0: 20af bf10 fb33 a73f ff80 f2aa e28c b53f
0.3245321321681617 -0.045530291890260886 -0.12378640398008117 0.2698009902592371 -0.011714338747632278 -0.03695447928040708 -0.10472819211964879 0.24207483389625822
-0.2254803371797267 -0.17640575148066034 0.143370167486375 -0.06878617092891026 -0.008784070688656291 0.006674166420940352 -0.12439299864809837 0.08584702083269519
-0.029681792160584718 -0.04683625417918153 0.3030022513860423 0.0036963252478112406 0.06641936299274248 0.08718344063528755 0.389861543707529 -0.028589777088386416
0.3210698098850508 -0.0376845484858362 0.1701303123211855 0.2712359766254492 -0.02302697733772808 -0.09384573548141059 0.13019218409528496 0.1939712787686912
0.025765807863653324 0.053265285432587635 0.09860884559030493 0.11983864415256985 -0.007800188522148889 0.06203731591345543 -0.12052370116606573 0.24525776895954995
-0.09999129061177894 -0.08078436996262406 -0.0007295610084997253 0.003920491795522127 -0.001771372536684583 0.22249466959959768 0.32338319270619437 0.010204464929615936
-0.13447552651696354 0.006226126612696986 -0.022101823020715925 -0.0848747265897338 0.004642597601411359 0.17169578012328504 -0.015894680129957726 -0.07210420475519952
0.1277029858556347 -0.06261176573867412 0.029235066005479392 -0.007876980984760352 0.0022627768093831033 -0.014638019964150489 0.18749106474870325 -0.10352800793522002
0.21927949401521266 0.31492014961256987 0.009433290997329744 -0.0011643880435692332 0.15239952516139113 -0.04773225921867756 -0.14300533961984224 -0.01516301777467478
-0.26965993682535294 0.025455356541202182 -0.017901654621076967 -0.17071794813038815 0.0188586380259965 0.22700132522934946 -0.015898201518719488 -0.14287321341631318
0.24805259934825544 -0.009706775903134287 -0.03262927540186017 0.008009027603242869 0.009201508719901478 -0.02936892961943366 0.3231327139736121 -0.21185954354899578
0.2964049783696159 0.4735898256958469 -0.031223617075376357 -0.004759614860560026 0.1882489999651725 -0.09281678563197414 -0.21263623819162425 -0.026786665412564
0.27522204304747233 -0.022675062153276988 0.005565368318439104 0.16566183798576936 -0.017262834090503876 -0.0990870809807879 0.10773853107857874 0.06720330695932691
-0.0067256977282415115 0.11954846339263071 0.019714906736040313 0.08219908493960627 -0.007170329682584549 0.07641206887151775 -0.07978008120379576 0.2130888755418433
-0.06452570354846252 0.010064602353070789 -0.0395443691910423 0.003983846707066916 0.020667016707906723 0.09775164747240775 0.31929886688399367 0.062130314165706586
-0.09347321499471883 0.01929643719461335 0.07216805939551192 0.027437812584905564 -0.007743730465754793 0.10909906760652884 0.07595807348284996 -0.19313026261953614
0.35859492458878384 0.025620460064778642 -0.12432301860083128 0.05770029392110706 0.007980707181760607 0.11520998156759395 0.3545875093584097 -0.07300610852862911
0.10519711383641372 0.18494916609002376 -0.03592917528915545 -0.0004915685207068558 0.11895617347564137 0.08909173385998606 0.008994741648701036 -0.00964568696935372
-0.0035711974340926515 -0.00933375406199652 0.047110404489132736 0.05965068776172476 -0.006307802537412608 -0.02170375790770653 0.1272143437515706 -0.05772740296064755
0.27472330154636326 0.0427433829466277 -0.057189217077450616 0.07838498118903682 -0.002508594437229091 0.09989930976146848 0.26742801838019087 0.08337131366865688
0.029876258955105574 0.0719383615447994 -0.03865496112916837 0.0023307493466070313 0.08012548981789076 0.1545539548745887 0.0646543098187972 0.043562918591739275
0.03714425076219723 -0.0036565577249956494 0.04026686962192529 0.02046659277422437 -0.004034977210486022 -0.02803344191524855 0.037887388658616586 -0.02945657833175574
0.08773302338544231 0.08547894859932514 -0.06872839950639395 0.02222013049144088 -0.0017710841725031275 0.03768623130695582 0.04366574964249157 0.0396496395478339
-0.01036907893464494 0.019860300539140497 -0.030294126231158576 0.0012219305202226356 0.007285587469714594 0.07273873088656801 0.035910489221355354 0.022104467646370217
-0.01603828726396744 -0.020273159676983777 -0.07220730568370463 0.08874329105026345 -0.0195755027521389 0.060486617358833525 -0.0438075746585912 0.11833882216926168
-0.07134532257654598 -0.11677272523102881 0.18000300403368075 -0.029326790489068503 -0.009170725025382888 -0.01313857869884425 -0.06839917780018918 -0.033214916380995385
0.009403622899168832 -0.07909251717442975 0.2468685828607921 0.004986122191971628 0.03859976017624185 -0.019231514193472417 -0.0749458309513723 0.009321929401237074
0.014995025286213012 -0.012560294266923736 0.16474570616161166 0.10475431268274255 -0.012709022553493899 0.00420961225867293 0.016635425039365544 -0.02253217976514128
0.18616794993732688 0.2083967780635149 -0.13547381917564275 0.06830211508436286 -0.005688665017794927 0.1041905319677595 0.15820627392749678 0.09903436443307491
-0.029263189858847464 0.02668275043728732 -0.02854465101554844 0.003853100103903298 0.03093494865122066 0.1734723170565439 0.07316457317189749 0.06387622972367721
0.08564517267092558 -0.008468906192745039 0.07798177847541016 0.05101868514187364 -0.009142283447660677 -0.04484854923563767 0.06465462359969976 -0.028537591354203924
0.08977664993562232 0.1539158058310113 -0.0486809263719332 0.039984127631416864 -0.004091812012203338 0.05497098462878881 0.04531845645382604 0.08418099092023466

NeuralNetEvolution.4.bias f8 [24]
00000000: 76f4 0f60 2cd2 83bf 1059 950c 7151 b93f
00000010: 3db4 c506 d727 a63f 30f1 fca6 dc29 ba3f
00000020: 9e92 6bee 5a85 5d3f 1b47 ae58 fecb c13f
00000030: 15cb c5f2 fb50 a1bf 8fc1 18e1 8858 b03f
00000040: 02af 554e 7f68 d13f e37b 4a39 4611 b8bf
00000050: e4cb e14d 6f34 a8bf e49f 4cb9 a113 d43f
00000060: e67b 6c4d 82f6 94bf 306e bd90 b0eb 543f
00000070: 49c5 5c80 e48b b93f 3be7 d644 118b c53f
00000080: dbcb 65ea 6158 cb3f d863 165b 1f85 b0bf
00000090: 4346 93e7 c4c2 9d3f c6b1 99e7 51b8 c63f
000000a0: 980f e489 c1f9 c63f f828 8bd8 2da6 72bf
000000b0: 5f9c cfa2 9404 b43f a8cf e8b3 03c6 b83f
-0.009678217584218479 0.09889895016872097 0.04327270467442943 0.10220126225334947 0.0018018138886698796 0.13903788881412357 -0.03382098520787317 0.0638509320785998
0.2720030083644219 -0.09401358507828621 -0.04727504564007015 0.3136982259334202 -0.02047160718495524 0.001276895930422916 0.09979084142539309 0.16830650197317162
0.21363471932599407 -0.06453128789725271 0.02906329787658125 0.17749999817477952 0.17949694855644505 -0.00455301197571089 0.07819489455106197 0.09677146093673505

NeuralNetEvolution.6.weight f8 [2, 24]
00000000: 05e0 2b65 6251 b5bf 2ce7 86f4 26a7 db3f
00000010: 1ff2 d44b c069 d1bf 273b 992c a836 d6bf
00000020: 7915 6845 050d d93f 1315 6ae3 6995 b53f
00000030: 3ee3 edb4 8a3f ce3f 299e eba8 2752 c43f
00000040: 6e84 68e3 390c d4bf 844d 9a63 9290 d43f
00000050: e3a1 6784 79dd cf3f 478e a4e7 217d e1bf
00000060: ebf0 004f 2f9a cf3f 46eb b075 b72b d0bf
00000070: f4bc b61a 3707 c83f 7a5c 3d58 1919 d23f
00000080: 8441 3cfc be42 c4bf 12d4 7d09 e8e0 d63f
00000090: 0db5 1be4 768d bcbf 84ee f7a4 ee70 e6bf
000000a0: bc9e b649 8902 d9bf 2523 4c93 35cb c93f
000000b0: 4412 c065 1383 d03f c798 3a43 3eec d43f
000000c0: c96b 3d0e 16fb e4bf d5ed 0364 0249 d9bf
000000d0: 66e1 6c4b fd12 db3f 1761 d986 d956 e53f
000000e0: 52cf bf96 879a d4bf 73d0 3fcf 3c82 dd3f
000000f0: 255b d29a 95f3 d03f de98 dcd1 fc88 b83f
00000100: f0dd 8c93 b8e7 d1bf 037b d7af 2b2f c43f
00000110: 9a04 4553 c5b5 a33f 9bcf 03ce ac74 b3bf
00000120: fe55 a881 ed5d c53f faf9 5cd1 0d6b d53f
00000130: 5fd2 3fe3 e1e2 babf 870c f568 2b65 d6bf
00000140: e6fa d5d9 e1c6 bfbf 236e 59e5 0f2f e6bf
00000150: 01bc f387 f778 db3f 1fd8 2a78 5c24 b23f
00000160: 3c01 941d 79ed d0bf 1fb8 4568 2188 c23f
00000170: 7f9c 66de 3c86 ca3f 64f7 a1d3 50fb d1bf
-0.08327307672504965 0.4320771587332384 -0.27207953839732285 -0.3470859942944337 0.3914197137640581 0.08431112100705133 0.23631414255557986 0.15875716922822505
-0.31324622352446496 0.321323964374834 0.24894637074545675 -0.546524956157051 0.2468928466568124 -0.2526682519270945 0.18772019199739243 0.282781921550345
-0.15828692737751393 0.3574771969500158 -0.11153357571648233 -0.7012856695213974 -0.39077980230875276 0.20151395504242334 0.25800023018408447 0.32691914143869066
-0.6556501653789094 -0.3950811363899594 0.4230340229583106 0.6668517717144223 -0.32193174096686505 0.46107406844317395 0.2648672115259834 0.09584026454521985
-0.2797681275291941 0.15768953405400774 0.03849617616152408 -0.07599906949673 0.16692894774375583 0.33465905614494285 -0.10502445028380113 -0.34992490052918196
-0.12412845199831288 -0.6932448844413027 0.4292582347542862 0.07086732801221317 -0.26449420822611436 0.14477937308714758 0.20722161158957772 -0.2809640948033716

NeuralNetEvolution.6.bias f8 [2]
00000000: 7ab9 6cc4 4812 b33f 614a 4aaf 0fea bbbf
0.07449774547123936 -0.10904024152322613

NeuralNetEnergy.0.weight f8 [64, 2]
00000000: d0bb 7913 7652 babf a6fb 3bb6 b62d a43f
00000010: ec20 eb64 2a10 d1bf 6f75 f4f9 6183 ea3f
00000020: 33d5 1435 5e01 d23f 20f7 4a52 205a a4bf
00000030: 408d 7c65 1a42 d8bf 49de ab21 e2f7 d5bf
00000040: b696 0e98 a5f1 c0bf a8d4 599e eb13 a53f
00000050: a1ed ae5d 2854 91bf 2690 d1d6 81a2 a1bf
00000060: 514c 6a2f 6ba6 91bf 39c0 1f92 06d7 50bf
00000070: e27d 1fa6 63ea d43f 1fb9 a125 8c69 dfbf
00000080: 7cad ff7d fe54 d2bf 3156 c078 d171 d6bf
00000090: 0386 5400 81bf d53f 3013 b938 120e cebf
000000a0: 55d7 c232 7690 d33f 7131 1629 9a72 a8bf
000000b0: bf14 7e28 3969 c7bf 6d8d bfc9 7a29 c8bf
000000c0: f7c2 b85e 4a48 dd3f bb98 9a78 2ba6 b23f
000000d0: 7918 256c 9b50 bbbf 2068 5bf4 9e1f a7bf
000000e0: 1836 5d57 9e89 863f 3509 6608 9176 b9bf
000000f0: 9148 a8a9 a873 afbf b1b6 a36d 1cda 53bf
00000100: f98f 38d6 5543 d93f fe53 59ec 25ae debf
00000110: e796 9c50 04bc ce3f 332b bd6d 6df3 d03f
00000120: 21f7 22bc 5011 89bf 7053 9fd7 8a0a c0bf
00000130: 5f42 99ff 06d6 d53f f387 0258 ed34 c73f
00000140: e431 7fcb cb3a cc3f 3c4f c809 cccb e7bf
00000150: 7a72 9eee 1c76 da3f d079 36c7 e622 debf
00000160: 4915 7bfc 3338 cebf 1d15 938e 1cf7 ac3f
00000170: 907f 6a40 5de6 c63f c152 b37d 2c1c bf3f
00000180: 7e20 9023 f1e8 c8bf 33ed 6ccd 8a30 d93f
00000190: 74d8 20a1 5638 87bf 36b2 40c7 22a9 a33f
000001a0: 7f15 dc3d 09fd b5bf 6b2a 533f 6ed2 d0bf
000001b0: 2edf 54f9 1059 733f e470 c67c b0b8 f03e
000001c0: 88cb 6dfd f486 db3f 1b8c e769 7453 eb3f
000001d0: 0ba2 e055 945c c23f 9c96 fff2 8d6a a5bf
000001e0: 0bfb ebc4 6aa6 993f d19e 028d efe8 a03f
000001f0: 4356 fd53 64df cfbf 931e 4024 c883 e73f
00000200: 11c2 71c2 840f d43f 8f8a aeba c0a7 d73f
00000210: 5fbc a571 42ab cbbf 073f e62c 984e c0bf
00000220: b671 d6fb 3982 d43f 4ff3 c499 4984 c93f
00000230: 7b06 f532 0ff1 b53f 2eeb 4495 56d6 d4bf
00000240: 7d8e 35e1 3614 a5bf 090c 3440 029d b83f
00000250: dca5 ae37 b417 c9bf 9eff bb3a cb26 b7bf
00000260: 1164 d7b2 b19b 9e3f 4118 df5a 59ff acbf
00000270: 3c12 4238 6179 d23f 60b0 f5ac b275 c23f
00000280: 18fe 1577 069b ccbf 8b7f 85f1 f333 d1bf
00000290: 6286 2710 b379 cc3f 39aa 938b 5400 e5bf
000002a0: 0681 1096 b3c4 babf 29b8 ee52 5822 a2bf
000002b0: 1944 63de 8a96 af3f 8617 5925 cafe dcbf
000002c0: 5eef 245e e7d3 b1bf 5c50 c437 24b1 853f
000002d0: 1ceb 5a21 337f d03f 6157 17cb 7cf9 d63f
000002e0: bf79 499f d384 6e3f d7c7 3467 a8c9 d5bf
000002f0: 0442 1080 c3ff d93f cdba 6ce2 e4ed d63f
00000300: 258b 38ab ab96 d03f a628 88cc 475e be3f
00000310: 334c b609 5f2b a1bf 01ce a9d1 ec4d 803f
00000320: d1ad 224b c597 99bf 57cb 9ee7 2378 c3bf
00000330: f339 f4e1 3c47 d33f 1bc4 0f41 ef80 afbf
00000340: 6454 eb86 69d1 a93f eab2 1bec d3c5 9f3f
00000350: 19c9 6d3a 58af d73f 37a0 67fd a0de dc3f
00000360: d1a0 bc9c 54b6 cabf c99a a879 ee5c e13f
00000370: 4c6b 83dc eccd 95bf ee73 de98 a998 e03f
00000380: c2cd 2f78 af70 d43f d421 2c0f aef3 c13f
00000390: 1b81 2999 24fe 9ebf 93e8 093e 567f 923f
000003a0: ead0 df8d fc82 d23f 79e8 4073 48de c0bf
000003b0: 2c9e 0ef8 e5df bbbf fc42 7b83 abc8 a13f
000003c0: d9f2 9ac9 c3de c4bf cce3 3261 3f6e c2bf
000003d0: c1c1 1ec9 275b c23f 9f19 edb6 69c2 a0bf
000003e0: 675f b3ed ff85 cebf e933 324a dd79 d6bf
000003f0: 97b2 c318 bc74 87bf 6377 c092 a36c 4cbf
-0.10282075858570683 0.039411267991446494 -0.2666116700679726 0.8285379297191592 0.2813334959385713 -0.03975010876227558 -0.37903461371225333 -0.34325459755152515
-0.13237447666795327 0.041167605476325975 -0.016922598569846795 -0.03444295642182764 -0.017236399430270947 -0.0010278286140383965 0.3268059847159447 -0.4908171050546048
-0.2864376287895636 -0.35069691459770796 0.33981347114794874 -0.23480441827464338 0.30569224316729066 -0.04774934531733067 -0.18289865948842096 -0.1887658581828008
0.45753726244133425 0.07284805006438237 -0.10669871702438795 -0.045163123444311504 0.011004673997059775 -0.09946543173831375 -0.06142928191197073 -0.0012116696948924306
0.3947348205567774 -0.4793791587920281 0.24011281906239576 0.2648576327962246 -0.012240057698700792 -0.12532172707019695 0.3411881919937851 0.18130270764692077
0.22054431377763628 -0.7436275664390233 0.41345904638891506 -0.4708802171170676 -0.23609018161929843 0.05657281151210667 0.17890515942871987 0.12152364796504413
-0.19460882412409214 0.3935877805813163 -0.011337925712819642 0.03839977915081187 -0.08589227447744995 -0.2628436678320784 0.0047236121220562265 1.5946810707143872e-05
0.4301121210948442 0.8539373463103205 0.14345030015216795 -0.04182857123650516 0.02504889323153762 0.033027158702052646 -0.24900487996153417 0.7348366458908963
0.31344717968662034 0.3696138213219137 -0.21616392659368253 -0.12739851181367376 0.3204483947136184 0.1993495941950649 0.08570952409811554 -0.325582166453091
-0.041169848433836066 0.09614576404059973 -0.1960358878980476 -0.09043569740242538 0.029890800991641046 -0.05663565859099196 0.28865843290285276 0.14421685643481208
-0.22348099531880972 -0.26879595361787584 0.22246397293843062 -0.6562903143033686 -0.10456392682727164 -0.03541828167304601 0.0616954227895194 -0.4530511250235282
-0.06963964508480333 0.010591776801938284 0.25776365525568834 0.3589775069534565 0.003725446056974862 -0.34043321684577904 0.40623557573511015 0.35826990234174333
0.2591962024763908 0.11862610572294105 -0.03353402131610785 0.007961130283752562 -0.024993021689324216 -0.1521038895567368 0.3012230116445657 -0.06153056782921614
0.05042581340755062 0.031028090749646 0.3700771875948177 0.45108818766175623 -0.20868928578534576 0.5425941826004755 -0.021293354949061524 0.5186355577203565
0.3193777726839607 0.14024902096595204 -0.030266353462480838 0.018063876663724953 0.28924478392515474 -0.13178353908171284 -0.10888516717988556 0.03473411540983837
-0.16304824203498106 -0.14398948904070463 0.14340684242553262 -0.032733253078322415 -0.23846434694746252 -0.3511880135127386 -0.011453122621298646 -0.0008674429605013242

NeuralNetEnergy.0.bias f8 [64]
00000000: e8ed abd5 f5af eb3f 0437 e126 e4af c13f
00000010: 9929 7ba4 6b23 e33f ce34 04ef cc73 e1bf
00000020: 707a f578 7a82 e53f 15a2 33cb 8051 e2bf
00000030: 4fef dbe4 253e e1bf 5dfa 8e11 b0d9 e43f
00000040: b446 f565 590f c03f 3ea2 2c59 0fe6 db3f
00000050: 2031 6592 a8c8 e13f c4ec b01d 11dd 3f3f
00000060: 52be bd47 1716 eabf ba95 39da 01ad c63f
00000070: d1a0 6667 757b d3bf da4f 13a7 67b9 a5bf
00000080: 7075 e018 43ff e73f 2224 9be9 b03a cd3f
00000090: d977 d741 4b64 d93f 7633 1f9b 3439 e6bf
000000a0: b5bd 8276 ea05 c6bf 9048 855c 95be e93f
000000b0: 9a09 1435 c3e1 e53f c885 decd dc99 dabf
000000c0: dc5e 350b 6d3b d43f 1e3c fb1a d441 bbbf
000000d0: 1ed0 cd71 8fe0 dd3f a47e f641 cb0d dcbf
000000e0: a060 66c9 984a cdbf ef8a ecb3 690d e03f
000000f0: 9c21 fffe c4c0 e13f 4761 7af7 3339 d0bf
00000100: d485 eed0 c58a e2bf 3dbe 7b51 a6f0 c53f
00000110: ab54 25f4 7759 cf3f a1e1 300a 02f9 e43f
00000120: 9087 78f6 7b49 df3f 85d1 b9d3 8981 c53f
00000130: 0470 0dc3 8927 cd3f d86a e2a3 8acb b33f
00000140: b201 5ed3 b770 d43f f3c5 7173 a18f d33f
00000150: 7181 33c6 108c b8bf d67a b347 c951 e43f
00000160: 4635 72bc 49ff c23f e795 f92e c32e e4bf
00000170: 6d39 a3c9 86c0 c7bf 4c6b 6087 a342 dabf
00000180: 228e 9d29 9cdc cabf 0d13 9c2c a3b2 cfbf
00000190: 769a 7e86 b2a9 e43f 4c41 74be c034 e33f
000001a0: 9b28 843d 2e57 c43f d7e3 4822 fc0a d13f
000001b0: e9aa 9971 6ca2 c73f 0bd0 8726 ac0b e03f
000001c0: fca4 8dc0 ccb4 e7bf 3a0e 413b ebb7 dabf
000001d0: d2af 9368 980a e2bf 8708 3d3a 1f9e e73f
000001e0: 5706 6a3d 73d9 c53f a6c9 31eb faca 9dbf
000001f0: 59fa a288 73d2 e43f a05a 930c a1e2 e0bf
0.865229527785627 0.13818027399468502 0.5980737888833573 -0.5453858059205687 0.6721775400618082 -0.5724491089613958 -0.5388364286331838 0.651573213857613
0.12546842077658982 0.43591674526627233 0.5557444438250378 0.0004861990725577132 -0.8151966477580095 0.17715476184382145 -0.30441031549208925 -0.04243015207762797
0.7499099241137355 0.22835360914749098 0.39674645833826855 -0.694483092281742 -0.17205553805022836 0.8045145804446907 0.6838089024243346 -0.4156410227243126
0.3161270722825813 -0.10647321375584837 0.46683107484500563 -0.4383419174355174 -0.22883901437740395 0.5016373170986678 0.5547814350512001 -0.2534913937356759
-0.5794400292108386 0.17140654543571712 0.24491786404783986 0.6553964804689266 0.48886012143531676 0.16801569784332684 0.22776910804793726 0.07732454777798681
0.31937976495103293 0.30564152025098607 -0.09588723029037795 0.634983673134992 0.14841577245207754 -0.6307083051185004 -0.18556294293962186 -0.4103173086202119
-0.20985748321537395 -0.24763908079344113 0.6457150103422709 0.6001895637328203 0.15891054156992798 0.2662954649745734 0.18464427515876672 0.5014248611973938
-0.7408202896887413 -0.41747551714454156 -0.5637933771627053 0.7380519998043987 0.1706985521196198 -0.029094620328075436 0.6506898564037541 -0.527664684831354
