benchmarks/checkpoints/checkpoint_benchmark2_sparse.pt (torch, 74717 bytes, 15 tensors)

e0 f8 [43, 2]
0	0xbfeb24b859c063eb	-0.8482324364623514
1	0xbfdd3f80e60ea7c5	-0.457000946679383
2	0xbfd319fe6b42e211	-0.2984615371201765
3	0xbfd1401421cbf42b	-0.2695360498472065
4	0xbfc32b485d1ea772	-0.14975838229048183
5	0xbfc575b2d49edb83	-0.167654374903318
6	0xbfe9805e323a9a9b	-0.7969199162515282
7	0xbfdd2fa1f195cf5d	-0.4560322627287315
8	0x3faccae1c867c3bf	0.05623536654810079
9	0xbf9facf159e044a8	-0.03093316184100972
10	0x3fccd05c09983fbc	0.2251086279725295
11	0x3fcf8317998c553a	0.2461881160494757
12	0xbfb51e89ed1e9f69	-0.08249723471692295
13	0x3fabc82e53996d9d	0.0542616345453226
14	0x3fa798d2e04d0ce0	0.04608782756852192
15	0xbfbccbfb417b4b54	-0.11248751019165343
16	0xbfc6e8539ded67e9	-0.17896504603669364
17	0xbfcbe96eac12509f	-0.21806128885203166
18	0xbfb5b7eb325e0756	-0.08483762721701046
19	0x3fabb7a09c104ed4	0.05413534073900697
20	0xbfe20c2846843021	-0.5639840485832829
21	0xbfdb34cda2bf3c5e	-0.42509785550368473
22	0x3fccd87eb849389b	0.2253569030603487
23	0x3fcf837a1e2e2c99	0.2461998603215292
24	0xbfd8ec653f271c97	-0.3894284359670989
25	0xbfd532e49b613ae5	-0.3312312619572551
26	0x3fb652acaede6fea	0.08719901341686379
27	0xbfc281d5970ee721	-0.14458722949876182
28	0xbfdc3655387e6095	-0.44081621663054565
29	0xbfd4334260743ac7	-0.3156286184247787
30	0xbfb8aa74b27c3bed	-0.09635094983626376
31	0xbfcc8de65f0ddd7f	-0.22308044091526466
32	0xbfe45a4742e49ad9	-0.6360203081611316
33	0xbfd6be6715274dd8	-0.3553712565019089
34	0xbfcf31e7e9b91740	-0.24371050750976941
35	0xbfd248378c74e956	-0.2856577750823325
36	0xbfc9ba75b288c2af	-0.20100280015460245
37	0xbfcfdde4cda5a94e	-0.2489591602455427
38	0xbfe2b37295553b67	-0.5844052235278071
39	0xbfd6a4971a5bd8fb	-0.3537957913789708
40	0xbfd8526abef8659a	-0.38003033303683653
41	0xbfd91871b54ce0eb	-0.39211695389850715
42	0xbfc665839263d11e	-0.17497295997566992
43	0xbfbf24571eeb0c06	-0.12164825920903874
44	0xbfc67ad564d9611d	-0.17562358307146378
45	0xbfcbe3f12f2d22b1	-0.21789374164133826
46	0x3fda4294b7d0b2e3	0.4103137774534799
47	0xbfd0e3333de7f55d	-0.26386719747082116
48	0xbfe31d9f959fdc9c	-0.5973661348679289
49	0xbfdb43478e042c72	-0.4259814154508553
50	0x3fbc6e25c467008f	0.11105571789721778
51	0xbfd3d241ae5d6e75	-0.3097080424101713
52	0xbfd02c12282ddf85	-0.25268987582921226
53	0xbfd24f9964486b69	-0.28610834878207086
54	0x3fadb021f273436f	0.05798441013906241
55	0xbf9fa11db81024b5	-0.030888046607320436
56	0x3fb47bb571365e8d	0.0800126458547032
57	0xbfc28df8124dc299	-0.14495755094278165
58	0xbfbabe575f4a50c4	-0.10446687771247115
59	0xbfd66438a0d88ac8	-0.34986701686481725
60	0x3fb4e4148806cc3a	0.08160522767029557
61	0x3fd49abc4bfbb291	0.32194430752023445
62	0xbfc207b5748d0671	-0.1408602542015163
63	0x3fb8ed0ad4affd51	0.09736697857441824
64	0xbfd546e467738d21	-0.33245191672013347
65	0xbfb8dac6d6f5ec1b	-0.09708826778471329
66	0xbfcb5a1497907d62	-0.21368653679472077
67	0xbfd0c962bfc6fbb9	-0.2622916100335107
68	0xbfb31f0446ecc260	-0.07469202739299297
69	0xbfcc7856ed1c4309	-0.22242247178703448
70	0xbfab7bc43ef3ea22	-0.0536786391112012
71	0xbfc7aeb59d6e83e3	-0.18501920878500674
72	0x3fca73dbded09966	0.20666073207503216
73	0xbfab5dd467429e9c	-0.05345023880482566
74	0xbfc3e55216ed406c	-0.15543581122847472
75	0xbfc57eba6efa1d69	-0.16792993944930437
76	0xbfd6c1076f5b9f53	-0.3555315577964297
77	0xbfd3442a49dfbb6b	-0.30103547300580286
78	0x3fd10362698a87dc	0.26583156878234404
79	0x3fb2417e180942fc	0.07131183707066308
80	0x3fd0cfa6fb9ebe08	0.26267408916734825
81	0x3fb2362e1eff781b	0.07113922364030183
82	0xbfdc720427f1dbde	-0.4444589986882742
83	0xbfd436d8e1fa81a9	-0.3158476073095025
84	0xbfd2f87607778100	-0.2964148590963447
85	0xbfd13fe6d773c621	-0.26952525177248005

NeuralNetEvolution.0.weight f8 [42, 6]
0	0x3fd5cca5204679fb	0.3406155409992661
1	0x3fd546cfb64412c5	0.3324469833317319
2	0x3fd96e3598b0f4f8	0.3973516455769892
3	0xbfbad60f86657baf	-0.10482880622065126
4	0xbfcdf13e16290106	-0.2339246376232113
5	0xbfb7c09013ee9b0b	-0.09278202520964045
6	0xbfd9dd7c6734142f	-0.4041434295507455
7	0x3fdee259223fab6e	0.4825651964626364
8	0x3fc4046645209d00	0.15638426184998622
9	0x3fdf453a73c394b9	0.4886003618724533
10	0xbfa54414f000c229	-0.04153504781459489
11	0xbfcba78432f1865e	-0.21604969489549125
12	0x3fd3d230e622647d	0.30970404123360834
13	0x3fd335a98a5bf635	0.30015028487818834
14	0x3fc22b0328d76e8c	0.14193763250556335
15	0x3fe12bace403ab75	0.5365814641385059
16	0xbfd20233729ac79e	-0.28138433639389315
17	0xbfcba65910541a68	-0.21601403519908335
18	0xbf9f118bc3706298	-0.03034036999096887
19	0xbfcc32c258ae4bcf	-0.22029904680365894
20	0xbf9cfbe0233d2054	-0.028304578924945936
21	0x3fcfc9355ce9cb66	0.2483278945615794
22	0x3fd9a56bca7c83c0	0.4007215001493556
23	0xbfda44d49251105c	-0.4104510716317742
24	0xbfc13a319eefb8f3	-0.134588434796974
25	0x3fd60caff092930a	0.34452436917699514
26	0x3fa3f05169ad5c0a	0.03894285597805698
27	0xbfd544e65e284441	-0.33233031458900447
28	0x3fdbcbc7dfe366b2	0.4343127905282059
29	0xbfc64d91df56368c	-0.1742422428618976
30	0x3fdf2ee94e0aaca7	0.4872382413984248
31	0xbfb9426102264460	-0.09866911222913322
32	0xbfa47e826a988179	-0.0400276904222236
33	0x3fd2ab1e13e7ac3c	0.29169418281407267
34	0x3fdda2569212c7fc	0.4630333353517242
35	0xbfd1ab4a452f3e48	-0.27607971912673124
36	0x3fcdbba713e37aad	0.2322892043220767
37	0xbfd233c92f589044	-0.2844107591975027
38	0xbfbc8fba5569f9ee	-0.1115681131868553
39	0xbfc081000abdb4fa	-0.1289367725798128
40	0x3fddd89d233fbe61	0.46634605829510717
41	0x3fd110b4a54af63f	0.2666446317851729
42	0x3fb98dd5e8f12ea2	0.09982048928321288
43	0xbfd52b7a4bf3c98d	-0.33077866952148655
44	0x3fbaddb4908a6fae	0.10494545487239179
45	0x3fb9ef3a530340fd	0.10130657698323726
46	0xbf82be995dbc1d71	-0.009152601407108137
47	0x3fde13e2ec682376	0.4699637707386083
48	0x3fd61d7aa9c1ea62	0.3455492646968762
49	0x3fdd3c15b4e88dd9	0.4567922846492514
50	0xbfd215bbfb7323bc	-0.2825765567363836
51	0xbfaf8ec741267048	-0.06163618727006842
52	0xbfd57cea78ae5edd	-0.3357492617155751
53	0xbfdd085e28c36857	-0.45363573056022716
54	0x3fd667bb076abaef	0.35008121227558225
55	0x3fd51f9ea48db007	0.3300549132316068
56	0xbfcc2277324a1fd5	-0.2198018069796023
57	0xbfd7dcc465b75c8a	-0.3728495591471491
58	0x3fda5168c355e32f	0.4112188251088353
59	0xbfc2483376c018e6	-0.14282840059622187
60	0xbfd60a043de606da	-0.34436136288432595
61	0x3fe2be73dda86357	0.5857486085179556
62	0x3fdc241035e78afb	0.4397011305247102
63	0x3fab62ba0253f6cb	0.05348759916703968
64	0xbfd277b54ba1f38d	-0.28855640779493613
65	0xbfd77289252669ac	-0.36636570575651706
66	0xbfce9b3440646b01	-0.23911145347741328
67	0xbfe1651289371bfb	-0.543587940214706
68	0xbfd658fba40c65a2	-0.34918108959535676
69	0xbfedc1cd7e138d40	-0.9299075567654782
70	0xbfea6ebfe9649331	-0.8260192450003158
71	0xbfc9695c8c69a4c7	-0.1985278783425086
72	0x3fbabc8b39af9ab6	0.10443945082043168
73	0x3fd631c5dba1e92f	0.3467878956650052
74	0x3fdac9396b7c10c7	0.41853175636812207
75	0x3fd17f29c62a8735	0.27338642456207946
76	0x3fde89e30aa64c35	0.47716594734191925
77	0xbfabd5020d1ccb8d	-0.054359497166294714
78	0x3fd85e37ba6e14f8	0.3807505913358251
79	0x3fc75744d39ebfa4	0.1823507340718581
80	0x3f6df44cdc4692c2	0.0036565304928493922
81	0x3fd5089aad2d2f6e	0.3286501589943701
82	0xbfbafb758f78778e	-0.10539946320247237
83	0x3fc1c0f7a39b2d40	0.13870139587957375
84	0x3f691a2877df963c	0.003064230956612927
85	0x3fd853589d8fabbb	0.38008704554402656
86	0x3f9ff01e94150743	0.031189420498100928
87	0xbfc41a788cfab6dd	-0.157057827794623
88	0x3fd14e7e081556a2	0.2704157904566761
89	0x3fd6ad3ba1cf8fd3	0.354323299425457
90	0x3fc8bad6624d0c6c	0.19320182609417047
91	0xbfe5b0a4f189bf2f	-0.6778130261936662
92	0x3fcbb60a7514ba0c	0.21649294583171785
93	0x3fc29681587a54d7	0.14521805591781486
94	0x3fdb3a86446a09eb	0.4254470508678014
95	0x3fcb15e481fbc87d	0.21160560938693954
96	0xbf7cc92e48360901	-0.007027798451760826
97	0x3fc581ef30317db0	0.16802778104009297
98	0x3fc259e8548f35f6	0.14336876038434782
99	0x3f929bd0fa71fdaf	0.018172517095533965
100	0xbfd83109f191703c	-0.37799309340130427
101	0x3fe53a479068517f	0.6633642025431498
102	0xbfd37fddfe34e466	-0.30467939209808603
103	0x3fd041c13a95811a	0.2540133545026194
104	0xbfdf835fab25d1bd	-0.4923934146275107
105	0xbfc1d798bc3554e8	-0.13939198675021847
106	0xbfa63d289f7edaf5	-0.04343535372702504
107	0xbfb6437790452b63	-0.08696696541043773
108	0xbfe2bc81046a352e	-0.5855107389667518
109	0xbfd7986104fb864a	-0.3686754749925042
110	0xbf85b1a36c99e097	-0.010592724563352625
111	0xbfc12382bab2e2d4	-0.13389619938040787
112	0x3fd7239dae3412fa	0.3615488244252415
113	0x3fa18f919bf0b2d5	0.03429846790854688
114	0x3fdb7aa408c913ea	0.42936039789157
115	0x3fd8ec41e7518b9a	0.3894200095148165
116	0x3fcb7112e8683e38	0.21438824031837256
117	0x3fd7a295c2a86412	0.36929840096996813
118	0x3fd9916280829717	0.39949858236137586
119	0xbfb2875ed727217f	-0.07237808945422407
120	0xbf9330e16bb3a90d	-0.01874115199908837
121	0xbfd7f91b4b2be3a8	-0.3745792612167471
122	0xbfc08d219fd179c6	-0.1293069868433589
123	0xbfeac572d142893f	-0.8366026007754853
124	0xbfd951431f44d922	-0.3955848508225178
125	0xbfb600559cb47c40	-0.08594260288053679
126	0x3fb2675537739eda	0.07188923457908505
127	0xbfd91768673d7dc3	-0.39205370027590564
128	0x3fc8b77f8ade1387	0.19309992104186
129	0x3fc4f5c23d34b692	0.16374996174402107
130	0xbfa4e28482245b39	-0.04079069222114246
131	0xbfd4ded15805cd76	-0.32609971614802846
132	0xbfade0a3ed328be7	-0.05835449476696635
133	0xbfcb4ded35ffdcf9	-0.21331563126270917
134	0x3fdd0e94f74b5fa8	0.45401500844809073
135	0x3fd0609560018281	0.25589498878074585
136	0x3fb99f99d1e01fcc	0.10009156583703244
137	0xbfaa9c49e6e1de9d	-0.051973637994646917
138	0xbfd2259cfb474ee1	-0.2835457281009735
139	0x3fd3edb57e7f6be9	0.3113836036042686
140	0xbfd1e165400115f3	-0.27938205004133393
141	0xbfd3a4ac3d3abb59	-0.30692583064494766
142	0x3fcfd86ec3ae67c4	0.24879250101804307
143	0xbfbc454506494bef	-0.11043197062944875
144	0xbfdd30a7dca51544	-0.4560947088942451
145	0xbf962afb830f62c6	-0.02164834010531782
146	0x3fb4644d4ed0717c	0.07965548681426599
147	0x3fb0167ac302da18	0.06284301053060692
148	0x3fcde7a7dfbd0ac1	0.23363207268456246
149	0xbfe4c43de07eb1ec	-0.6489552864709913
150	0x3fc1dbc7dc7fe0ce	0.1395196749360878
151	0xbfd607834ea5f9b2	-0.344208552174588
152	0xbfd3dc87af47bc5f	-0.3103350841256027
153	0xbfb459eb73549b43	-0.07949706617055789
154	0xbfbf3faa1c9272eb	-0.12206519315300184
155	0x3fd2451573a94a31	0.28546654028937996
156	0x3fd224153b64553f	0.28345232772820234
157	0xbfd4001b176687d7	-0.3125064590950592
158	0xbfd0b9da03d64612	-0.2613434827299851
159	0x3fb09baea0e4605e	0.06487552097348856
160	0xbfe398af6a19684e	-0.6123883316279348
161	0x3fcca0d83b39ddc2	0.223658589285817
162	0x3fb9129ad3cfb150	0.09794013663458156
163	0xbfdfa7680e2d585b	-0.49459267982945726
164	0xbf8c1b05aa90e53e	-0.013723415630112808
165	0xbfb23ebf0314ae48	-0.0712699301263281
166	0x3fbde10118159cf6	0.11671454275129975
167	0xbfe077850c6c584e	-0.514589809669596
168	0xbfd1228a22ffab44	-0.267733129671502
169	0x3fc031e80d128965	0.12652302397061557
170	0x3fe362854c645847	0.6057764522581771
171	0x3fc3c78a6df1981f	0.15452700012537066
172	0xbfd15c1aa1595cdc	-0.2712465835260909
173	0x3f82fccc8df932e2	0.009271238405881236
174	0xbfe2ece567042176	-0.5914179813417337
175	0x3fc8f01e21dbd6ea	0.19482781079539474
176	0x3fc75cd8b0d93c27	0.18252094874557764
177	0x3fd490c5bf66ef95	0.32133620921717326
178	0xbfba10f3a97e9481	-0.10182116401718312
179	0x3fcc647f053fbcc8	0.2218168998365171
180	0x3fdd108e26d1d25c	0.4541354540918172
181	0x3fd192a50ec32d1f	0.2745754856266149
182	0x3fdb57799a20296f	0.4272140507825019
183	0x3fb5183f2eaa6a96	0.08240122689532323
184	0x3fdc41b182a1be78	0.441509606905107
185	0xbfc6da64c4f8d405	-0.17853984468243325
186	0xbfc34cf71b664a9c	-0.15078629339094085
187	0x3fd94f21e9d4bb3c	0.3954548629289325
188	0x3fde3083fc3a31aa	0.47171115523885965
189	0x3fd9985ae7c4cb10	0.3999240172735634
190	0xbfe033b79ff3abbb	-0.5063131450709685
191	0x3fc78992c6f691b8	0.1838859054088411
192	0xbfc8e0ae3151117d	-0.19435670288124732
193	0x3fbdc8530b50a772	0.1163379576325079
194	0x3fdb7bd5845f23ed	0.429433230656797
195	0xbfd8b718fa7f4074	-0.38617538893323133
196	0xbfd3d9ae8d719f86	-0.31016124546885526
197	0xbfc7e6d62fecd3e4	-0.18673207607358144
198	0xbfc979ebfa8f4818	-0.199033257812119
199	0x3fbd231486131306	0.11381653092673724
200	0xbfdc92ffe22cc704	-0.446472140191972
201	0x3fd85c9cabd1a995	0.3806525876922476
202	0xbfdac36bd73a1126	-0.4181775667023139
203	0x3fdb89ea42245d66	0.4302926679533442
204	0x3fd166f16131a9ae	0.27190813533402547
205	0xbfd455f843fdf4e7	-0.3177471794113686
206	0xbfd79db635911078	-0.3690009616004839
207	0xbfb0da0ec07c444f	-0.06582729529715546
208	0x3fc075f891971f61	0.1286001883402106
209	0x3fd4624fdc3af729	0.31850048548573057
210	0xbfa105c8a8e39f90	-0.033247252098418945
211	0xbfc701a39770d521	-0.17973751921241735
212	0xbfda79032ee2606e	-0.4136360128263793
213	0x3fe01379afd1003e	0.5023773607172257
214	0xbfe20a0d6302ee9d	-0.5637270864312601
215	0x3fd1a3858110560b	0.27560556033981304
216	0xbfa65e4927315cb1	-0.043688093218116626
217	0x3fdec00b48c1252e	0.48047144036225375
218	0xbfb94a131606d6f6	-0.09878653800737056
219	0x3fd187e9f60518b2	0.27392052674657486
220	0xbfe361554d3a33ff	-0.6056314953181071
221	0x3f836534d5ddc008	0.00947037961643106
222	0x3fb6fe93c016f9ef	0.08982203902903739
223	0x3fd0a18d526bdeb9	0.25986035393678325
224	0xbfa65aa329a3bf63	-0.04366025813385368
225	0x3fd4cf87508f35b1	0.32516653887872865
226	0xbfb6cd307f4691d0	-0.08906844241443612
227	0x3fd4608b15c09e61	0.3183925354410118
228	0x3fd6c4faa459e3c9	0.35577264833369476
229	0xbfd8872150ed46df	-0.38324768927587444
230	0x3fa5996fd8e3dfbc	0.04218625567040088
231	0xbfd19256d170e63d	-0.27455683186744634
232	0x3fd9cec019ae2100	0.40324404247122914
233	0x3fc74a0686721e49	0.18194657864317978
234	0xbfd915a727b95eb7	-0.39194659117991243
235	0xbfe2c49fe940aea4	-0.5865020328250989
236	0x3f9c2d6620792876	0.027516933185588198
237	0x3f917fee656db2ba	0.017089581433014735
238	0x3fc3b701e2f1a1f5	0.1540224416851427
239	0x3fc70c81700a8e61	0.1800691411091178
240	0x3fc8d1d4a255d7f3	0.19390352179078682
241	0xbfc090dcaec29451	-0.12942083867270296
242	0x3fd8248ed8a78714	0.3772313228383706
243	0xbf9b24760d0a94d8	-0.026506275697688902
244	0x3fd7b753da9240a8	0.3705644258962004
245	0xbfce4316312509de	-0.2364223232235209
246	0x3fd2f39896e18188	0.2961179231115456
247	0xbfe3048337beb8a8	-0.594300850750888
248	0x3fd1702335bada88	0.2724693321901346
249	0x3fbe1025a913e3bb	0.11743388536332493
250	0x3f79a6e030e23861	0.006262660737901355
251	0xbf522697c5a05730	-0.001107834067175028

NeuralNetEvolution.0.bias f8 [42]
0	0x3f93814acf55e9a3	0.019047898201714052
1	0xbfd461a42b45a247	-0.31845955110342
2	0xbf983867b3e34a79	-0.02365266833732924
3	0xbfddeb31448d1afe	-0.46748000807239964
4	0x3fe6ba80f28d1b64	0.7102665650680646
5	0xbfcfa632683de538	-0.24725942697458847
6	0x3fc3eb35d259920d	0.15561554690351934
7	0x3fbe595e92f69aed	0.11855116928073146
8	0x3fbc615a9730e068	0.11086050215897247
9	0x3fe87c8df5f4461f	0.7652044109146948
10	0xbfccedb94b463edd	-0.22600475478656437
11	0xbfc590ee283ba059	-0.1684854217958243
12	0xbf80868225fe46b7	-0.008069054398024062
13	0xbfd1833f16362982	-0.27363564652537076
14	0x3fc2feeb9f2b64b6	0.14840455314587125
15	0x3faa7586695d6559	0.051677894937436526
16	0x3fda1cfa90841bb2	0.4080187236108329
17	0x3fc7a09505917f75	0.1845880772771086
18	0xbfb305a5286569bb	-0.07430488811716078
19	0x3f94eeeed11bed72	0.020442706597334
20	0x3fe1266312e19c09	0.5359359139228
21	0xbfd23f67929b94b9	-0.28511990849649355
22	0x3fd59252e43ffacf	0.3370558957102902
23	0x3fdf4a9a9d2a74f3	0.4889284643957829
24	0x3f965482fcbb2a81	0.02180676143215488
25	0xbfad110555028bb6	-0.056770483615103215
26	0x3fd18f444a39c0a5	0.27436930893510186
27	0x3fd85b0a1aaefdac	0.38055660825554116
28	0x3fc489d90a1d2177	0.16045678132855887
29	0xbfb25e9f794f01a8	-0.07175633155475813
30	0x3fc4c0ce293b1ef1	0.16213395131330047
31	0x3fc4dc78f7ca80bf	0.16297828768893471
32	0xbfc7a7f1a3a5b91c	-0.1848127411898951
33	0x3fbbe716f0f42cb3	0.10899489767705255
34	0x3fa178b5498bbe4a	0.03412405512596857
35	0x3fcec97ea0778b96	0.24052412829686592
36	0x3fcc9887d4004067	0.22340486384973987
37	0xbfd2c63cb13af7db	-0.2933494311108668
38	0xbfe11da7b60f4fec	-0.534870009980748
39	0xbfd0fbba586a88c1	-0.2653642524184186
40	0x3fd80e20b0055f28	0.37586228551434653
41	0xbf90dffaa448f177	-0.016479412343174595

NeuralNetEvolution.2.weight f8 [42, 42]
0	0xbfc774b3b3e53e8f	-0.1832489612956931
1	0xbf95a335516d5f86	-0.021130402655529255
2	0xbfc554bb21a1cf0f	-0.166648284360797
3	0xbfd337ab26e577a2	-0.30027273939583143
4	0x3fd710f9b404f7fe	0.3604110963823358
5	0xbfceee3227ff2426	-0.2416441626831169
6	0xbfca07ae4228a9c7	-0.20335939627086771
7	0xbfc0e4c75c7ae641	-0.1319817735255118
8	0x3f979b9812542b6b	0.023054481619549188
9	0x3fd61175cc78fc48	0.3448156830599527
10	0x3fb45c5e33df5a66	0.07953442350786019
11	0x3fcaae597947616f	0.20844572469537634
12	0xbfbfa9629be7f199	-0.12367836290645186
13	0xbfcbdff5968f11a1	-0.21777219630724878
14	0x3fcc082f17fc023d	0.21899975463021973
15	0xbfc07aea578fb64d	-0.1287510802789477
16	0x3fccb9148e37f79d	0.22439820236462263
17	0x3fd165ac769eef2b	0.2718306692511187
18	0x3fc31a23f00beef3	0.14923524113679995
19	0xbfac8186abeea051	-0.05567570542126588
20	0x3fd282e07e49e3e4	0.2892380936896741
21	0xbfc2e0f340a36a5c	-0.14748993545693423
22	0x3f768d9d7cb7d5c9	0.005506148514077444
23	0x3fd4ba9c1ce88e44	0.32388975928390473
24	0x3fbca2b936d767c7	0.11185796345617326
25	0xbf986710294a7505	-0.02383065464038216
26	0xbf83d8437a27413f	-0.009689833798717571
27	0x3f98d69f3daaadeb	0.024256218088948883
28	0x3fbe9bf19b276b86	0.11956701314868043
29	0x3fba9e191b34757c	0.10397488512213288
30	0xbfb41a9988ce9440	-0.07853087987912577
31	0xbf5f8dc097bafe36	-0.0019258862293297769
32	0xbfb5d20260691a95	-0.08523573735974772
33	0x3fcefd808c0eb3f0	0.2421112712740121
34	0xbfbfff7f87a59723	-0.12499234258356444
35	0xbf841f8095f76904	-0.009825710846531617
36	0x3faecf00cf3471e4	0.06017305878978954
37	0xbfa2aafb6bec8b11	-0.03646074001723865
38	0xbfc0e6678736bed8	-0.13203138448942897
39	0xbfc22bc2ad401643	-0.14196046313752406
40	0x3fb874e378333eb7	0.09553357777189829
41	0xbfc3d9757f82f408	-0.1550738213171885
42	0xbfaf16a628f76014	-0.060719673634309995
43	0xbfc694b7a3d30944	-0.17641349314915022
44	0xbfc41ec5db9262c8	-0.15718911381988776
45	0xbfaa9d0de1f4f704	-0.05197947867644184
46	0x3fd2fea0b29a2da5	0.2967912429964719
47	0x3f91d8b9ac3763be	0.01742830384850768
48	0xbfbbaed8413ede25	-0.10813666909131621
49	0x3fce29b523ce8c1a	0.23564781425838605
50	0xbfcb0c9105ea43ca	-0.2113209990389165
51	0x3fb19fe87b648b0b	0.06884625446813801
52	0x3fce357ce1abd1fb	0.23600731867885813
53	0xbfc7c0b26efc55a7	-0.18556814593527557
54	0xbfb7515619a9645d	-0.09108484388834044
55	0xbfc81ba7689b5cf0	-0.18834393127210758
56	0xbfc902ff05661084	-0.19540393603904616
57	0x3fd94a4bd5d4c4f3	0.39515968210169133
58	0xbfbd15f0b9b919a0	-0.11361603292707523
59	0x3fb9aebd1431d8cc	0.10032254927668588
60	0x3fd6ac6c755ae8d7	0.35427390537701114
61	0xbfcb56985be06d5d	-0.21358017431416956
62	0xbfa3748bd8bb8b48	-0.03799855251943157
63	0x3fae196c1af85627	0.05878770665382787
64	0x3fcec75ed3e72c59	0.24045930239512606
65	0x3fc31dff2e1aa0bf	0.14935292960331556
66	0x3fc2182cc8e0847b	0.14136276062439265
67	0xbfb67002fa17e9c0	-0.08764666181369929
68	0xbfc51c9c6ba922e5	-0.1649356389700848
69	0x3fa1810d25ccabb9	0.0341877087251627
70	0x3fb3772ab4e9d6ed	0.07603709141570976
71	0x3fc4c7a886f358eb	0.16234308804877826
72	0xbf784e32e2007b2a	-0.0059339511499548
73	0x3fb729aa965da155	0.09047952815092704
74	0x3fbdddc58587510d	0.11666521558737859
75	0xbfc0943d91496f4e	-0.12952394098362635
76	0xbfc25b86c64bf824	-0.14341816599329704
77	0x3f841f3a31ba24d2	0.009825186388541605
78	0x3fb02ab104c836fa	0.06315142027616708
79	0xbfb3e4fef1a0d737	-0.07771294974449182
80	0x3fb03fe68586e66d	0.06347504386840237
81	0x3fc2863938f6e5d5	0.14472117692439093
82	0x3fd4ea057e1bd7da	0.3267835361033328
83	0x3fb810d521f18ebe	0.09400684431744374
84	0x3fb2ff50e56fe65d	0.07420831300250925
85	0x3fc166179b432244	0.13592810708202496
86	0x3fc03eb0ce272a93	0.12691316667617922
87	0x3fbbab026d6b7622	0.10807814761525283
88	0xbfb0dfd7110b14ad	-0.06591552892776305
89	0x3fc979f818e8e4d6	0.199034702456436
90	0xbfc5ca1e2ecca5a8	-0.17023064885260664
91	0xbfc430a60d653d04	-0.15773463872981364
92	0x3f803e3729a7b5a5	0.007931166609490623
93	0xbf94ae110199b184	-0.020195260737112544
94	0x3fb63dbae0eea68a	0.0868794249678563
95	0x3f69323757fedb28	0.003075702756145122
96	0x3fb9902970b02885	0.0998559856526829
97	0x3fba69e70bd44255	0.10317844427869123
98	0x3face4daf74a870f	0.056433527647881225
99	0xbfb5f23a7a530192	-0.08572736250335414
100	0xbfd6268c7297f804	-0.34610282126220704
101	0xbf906063be7d2ae1	-0.015992697240373558
102	0x3fabed4c61ad4dd3	0.05454481785150347
103	0x3fc67744edac220a	0.17551480870339758
104	0xbfc3996887991784	-0.15311915036198454
105	0x3fb6b1522e53d925	0.0886432040314032
106	0xbfb83689b8e2e036	-0.09458218349289002
107	0xbfcb4015327d30f6	-0.2128931519058665
108	0x3fc038ca6750af73	0.12673311276136764
109	0xbf8391998bd33512	-0.009555053310033066
110	0x3f8caa5405e137eb	0.01399675028747179
111	0x3fb79ed681a6efbe	0.09226742425283782
112	0xbfc245ce7f30dc1e	-0.14275532923213147
113	0x3fc6d58ee99fbd2e	0.17839228064938467
114	0x3fbb6f63f9d5e096	0.1071684346151208
115	0x3f9f330c37e6a59a	0.03046816912834558
116	0xbfa7e7156f7a7666	-0.04668490396327911
117	0xbfcaa3748c37ea0e	-0.2081132588062506
118	0xbf7fd2e8f3fc574c	-0.0077694987992538815
119	0xbfad8f3c3d414f11	-0.05773342368834567
120	0xbfaa70b9abac77fc	-0.051641275602591435
121	0xbf6fef6329eea2d2	-0.0038983284752770265
122	0xbfb752ee99d42452	-0.09110919242461193
123	0x3fbfcbf4101a1789	0.12420583146203347
124	0x3fc74bb557ae6470	0.1819979360705335
125	0xbf9433ed0aa89b0b	-0.01972933175616291
126	0x3fb483a85eeb9922	0.08013393704786556
127	0x3fc0424f597fb107	0.1270236193662486
128	0x3fb177ba297a5074	0.06823314201966629
129	0x3f9e0c8866fa434d	0.02934468391919447
130	0xbfb5f8f6de72d06b	-0.08583014422294048
131	0x3fc9b799d11775d6	0.20091555318405935
132	0xbfbda538dc02904c	-0.11580233928049316
133	0xbfae2acdf760ebbf	-0.058920322845060984
134	0x3f925bd807b0dab8	0.0179284815496554
135	0x3fb0da95506b6867	0.06583531583183487
136	0x3fc0452341bb981c	0.12710991582497477
137	0xbfc0f30788633ad2	-0.13241666945983482
138	0x3fa586d207013755	0.042044223170349206
139	0xbfa2462702256263	-0.035691470157591686
140	0x3f9eb9655ce79025	0.030004104419177353
141	0xbfc1ca9124390ee8	-0.13899435299582952
142	0xbfc40e2aea9301fe	-0.15668236211605796
143	0xbf89824f7642fe8f	-0.012455578610001154
144	0xbfa4af52f5320cef	-0.04040011637791873
145	0x3fc0fa8e4d122d02	0.13264635813934694
146	0x3fa37c50539ff9de	0.03805781384288641
147	0x3f80b3ac4041fbd9	0.008155198775282745
148	0xbfa95db09b51feac	-0.04954292198180829
149	0xbfa0019006212981	-0.0312619216425274
150	0xbf9fd0598beb0d0f	-0.03106822887890553
151	0x3f7cd1318e024480	0.00703544003785439
152	0x3fb59f5c964fb92c	0.08446291608536133
153	0xbfae9eca34dd3241	-0.05980522055924498
154	0xbfc1da25c58773e0	-0.1394698347566239
155	0xbf9ad87e1432d192	-0.026216478331393463
156	0x3fcf05a948a598b3	0.24236026808939
157	0xbfa4f98304d0c7f1	-0.04096612390311794
158	0xbfb4ada4f7313480	-0.0807746032234764
159	0xbfd054d948574960	-0.2551787573294373
160	0x3fa6f4d42d528b83	0.04483664563419778
161	0xbfce46ff056f567a	-0.23654163136841416
162	0xbfc0b2a954970a70	-0.13045231466647378
163	0xbfa1bd910bf80e7d	-0.034649403296524085
164	0xbf8fa568c9856c75	-0.015452211999834578
165	0x3fae31bac7125a9f	0.05897315673899083
166	0x3fb3c3b02f41c432	0.0772047152875224
167	0x3fa02e9462fe722b	0.03160537441656105
168	0x3fc1eb1932ed0580	0.1399871348058177
169	0x3fc5b3267b429db6	0.16952973383489017
170	0x3fc3042a23006589	0.14856459340152764
171	0xbfb48918281eab92	-0.08021689395415724
172	0x3fda5e2051cf45ef	0.4119950102732152
173	0xbf9f4e86f100156a	-0.030572994670384025
174	0xbfd0514b1289b9d9	-0.2549617463145331
175	0xbfbbc08092cbdad7	-0.10840610107321012
176	0x3fa5da1cba07695b	0.042679689129459596
177	0x3f9c4c527009dd08	0.027634895408906096
178	0x3fcf0d1634509801	0.24258687548098126
179	0xbfd8bdf53d7856b6	-0.3865941143315966
180	0x3fbbc986d867c939	0.10854380400977427
181	0xbfc09a940d1af4b0	-0.12971735610873258
182	0x3f93f31bea3b7e47	0.019482074901018966
183	0xbfc24f9b77527cb8	-0.14305442167549187
184	0x3fade97432114e94	0.0584217368238146
185	0x3fac62158bce8551	0.05543582278847715
186	0x3f96b36fd25d1040	0.02216887208420837
187	0x3f9f57e364864b2b	0.030608704577001305
188	0xbfce2a1729c9f278	-0.23565949955436216
189	0xbfa59d6460ce220d	-0.042216431443254356
190	0x3fccbd81a4e9b7ae	0.22453327705755782
191	0x3fd104785cdb35a2	0.2658978373336486
192	0x3fd3973a6f731961	0.3061052406668719
193	0xbfced5518bceb2db	-0.2408849651959802
194	0xbfdd259ee67faeb8	-0.4554211855854464
195	0x3f29b644f051caf8	0.00019616691148235227
196	0x3fd3293b54b18fc8	0.29939158697947876
197	0x3fc108efa740c529	0.13308520952845385
198	0x3fcb2c49c187972a	0.2122890658349033
199	0x3fb18e69bebeff10	0.06857930094610887
200	0x3fb2d05dd6c90471	0.07349192136554607
201	0xbfd0315298e2b985	-0.25301041536558727
202	0xbfcfcd7238e9ac15	-0.24845721987671313
203	0xbfd27ba4ac7f259f	-0.2887965855157634
204	0xbfac90d1a838b27c	-0.055792381081436
205	0xbfc1137581b9e19a	-0.13340634187967454
206	0xbfcecaa37af3e467	-0.24055903914976115
207	0x3fb0624693c715a9	0.06399956806043029
208	0x3fc0c3cf1ba3229d	0.13097561692690798
209	0xbfc2f7f71002eb9d	-0.14819229394728675
210	0x3f7e0d5ad4fec08c	0.007336954891727154
211	0xbf84ee918049371a	-0.010220658042409837
212	0xbf91c685d327902c	-0.017358866703844608
213	0xbf8b04f323fe6660	-0.013193034683172289
214	0x3fb0d231cceb7bd4	0.06570731404234148
215	0x3f7c576642e7311d	0.006919288118705927
216	0x3fa4d6eb83c7ed6b	0.04070220931677223
217	0xbf6ce80ba5bdc7c4	-0.0035286166657266544
218	0xbfa1a0af2d4fb8ac	-0.03442904880636041
219	0x3fb392250eace3b4	0.07644874199185275
220	0xbfa26353102c5d56	-0.03591403553417176
221	0x3fa32298ec72e004	0.03737333189332051
222	0xbf744ee208b3ce00	-0.004958041138923175
223	0xbf8038c0c40fe94a	-0.007920747741071783
224	0xbf83daccdc84922e	-0.009694672088309177
225	0xbfa10b50ab109874	-0.03328945244020157
226	0xbfb677e4139b1e1c	-0.08776689032230717
227	0x3f99cab7645d1f80	0.025187364102094545
228	0xbf83a6c2291d2a36	-0.00959541023225539
229	0x3f7527265aaf8fdf	0.0051642893040231
230	0x3fc54e2464427d3d	0.16644720931524573
231	0xbf8d447bfe1732b5	-0.014290779773454923
232	0xbf97916fd818309c	-0.02301573521076304
233	0x3fae9182e26500cc	0.05970391286473528
234	0xbfa81dcbb819f786	-0.04710232374507854
235	0x3fa5af61264077af	0.04235366432133902
236	0xbfb0ce9f3e989075	-0.0656528022596506
237	0xbf63601813f90bd4	-0.002365157153492595
238	0xbf8a664d6310fea2	-0.012890438638464122
239	0xbf9363a12b0c19a2	-0.018934744121929754
240	0x3f926c60b6c31ae6	0.017991553454318153
241	0xbf8f3fb9a284abe7	-0.015258264801181155
242	0x3f831445d2a3b89f	0.009316010943134776
243	0xbfbff7ef4a8a79d5	-0.12487693376394955
244	0xbf85737310ca88e9	-0.010474108648228913
245	0xbfb11ec03035239d	-0.06687546898787251
246	0xbfb0c09da1eb6593	-0.06543908312905548
247	0xbf947f2a66463b18	-0.020016348354654573
248	0x3f9682b33c31c704	0.021982956456162675
249	0xbf706e7765b4d03c	-0.004011598964371695
250	0x3fa13370ce3522ca	0.033595585986920876
251	0x3f898b26db86ef44	0.012472442221102782
252	0xbfbd9fab42e30d3c	-0.11571760542851889
253	0xbfb560205f8f1f07	-0.08349802334771193
254	0xbf8c877d6160a2f1	-0.013930301222062154
255	0x3f508668994c5373	0.0010086080048427842

NeuralNetEvolution.2.bias f8 [42]
0	0x3f4b391ba9a94331	0.0008307824203460432
1	0x3f9abacee4bc7ad8	0.02610324164481423
2	0xbfb38c94fbb9d44a	-0.07636386056567904
3	0x3fa90467e2eae5c1	0.04886173863401267
4	0x3fbd290d2c399e4a	0.11390764550889645
5	0xbfb3ec23bead509b	-0.07782195477676838
6	0xbfa9e5d71e8844c5	-0.05058166740139706
7	0x3f72b256e0b20501	0.004564608923034231
8	0xbfbaaa0726098145	-0.1041569202293476
9	0x3f88a71888c4c264	0.012037460016103903
10	0xbfa1afcb10becf40	-0.03454432086382875
11	0x3fd0b5502f8434f9	0.2610664810207051
12	0xbfc8b189dd293178	-0.19291804598686801
13	0x3fa34acf49471e3c	0.037680127806706015
14	0xbfb1857b8087d3dc	-0.06844303024247672
15	0xbfc8be79eb9a6cbb	-0.1933128738790851
16	0x3f78abb79102d371	0.006023137146418432
17	0xbf65c98bdf9f89ee	-0.0026595813660474843
18	0x3fa4ddaf18f30bc1	0.040753814502316306
19	0xbfac4a4958f5a2b3	-0.055254261121097235
20	0xbfc78ae465774a53	-0.18392615274804544
21	0x3f986c82a4331d36	0.023851434013321092
22	0xbf78b4f2f26113e3	-0.006031941424287065
23	0x3fc3ebe554a4f137	0.15563646920225846
24	0xbfb4247e0d20f99f	-0.07868182964828073
25	0x3fb3bd0a2d6c3517	0.07710326775505326
26	0xbfa06d275be42cb8	-0.03208277699203549
27	0xbfc8d1645e8bef79	-0.19389013878378217
28	0x3fc237f1b92988d1	0.1423322824585456
29	0x3fb90b1ba6240d31	0.09782574468777196
30	0xbfa82975c90e060d	-0.04719131545335751
31	0xbfc97c806a3a415e	-0.1991119879426248
32	0x3f6d9efc7878db3a	0.003615849596623558
33	0x3fc5cfbe2a7151a9	0.17040230820078975
34	0xbfc080e7ac590a9a	-0.12893386760159303
35	0xbfc3592a1a656316	-0.15115858353490158
36	0xbfba4c07163ebdb7	-0.10272259038060026
37	0x3fa0957c2b6df700	0.032390480328997384
38	0x3faef7a5ed2a0a09	0.06048315544196121
39	0xbfcf928c28d99e27	-0.24665977472908304
40	0x3fcb33a6dafb6cfe	0.21251378719794184
41	0xbfbcd5edea1574cc	-0.11263930287300922

NeuralNetEvolution.4.weight f8 [42, 42]
0	0x3fb53ac8f6b43bc8	0.08292823813483985
1	0x3fbcb9ef8195eeb4	0.1122121516581796
2	0xbfbc2cea12553210	-0.11006033847406393
3	0xbfaa77b1e4e7692a	-0.051694449608208196
4	0xbfb12fb450b745df	-0.06713416071513433
5	0x3fb0486390d7f034	0.06360456739634018
6	0xbfb01de183a3e17e	-0.06295594657775003
7	0xbfb9962653b04fdb	-0.09994735282117466
8	0xbfb1d9b601e8ea93	-0.06972825571657841
9	0xbfc55ff01dbaa4b2	-0.16699029399504678
10	0x3fa3e3c798b34301	0.03884719599739662
11	0xbfb6812f3b109aec	-0.08790869895947723
12	0x3fa3b5eadf63df52	0.03849729515962842
13	0xbfbd18b6e0a6e984	-0.11365836128871903
14	0x3f772dbac3638abd	0.005658845466515569
15	0xbfba8d9f827ef170	-0.10372349677976955
16	0x3fb6c07ac4a6116b	0.08887450505250676
17	0x3faf586c4e8a7123	0.06122148951291908
18	0x3fb662c392cb4612	0.08744451841200654
19	0xbfb51e7c68089c3b	-0.08249642887004509
20	0xbfb03beed9b6767f	-0.06341450515034273
21	0xbfb2d8944caf00c6	-0.07361723777922
22	0xbfbcd14f03a0a540	-0.11256879652559793
23	0xbfa19d435c312975	-0.034402947429572096
24	0x3fc778cdfab84d57	0.18337416402992332
25	0xbfc145b49b278a74	-0.13493974281216803
26	0xbfab4e7943cd80a1	-0.05333308174772467
27	0xbfaeb38173593222	-0.05996326954900534
28	0x3fbf31573ddb4521	0.12184663067025216
29	0x3fbaf2ac594f1d01	0.10526539974590678
30	0xbfa892d4d37f4811	-0.047995234315422526
31	0x3fc9e4ec70d521ed	0.20229869374658396
32	0x3fc107d01b52dba3	0.13305093130267406
33	0xbfaa4599f8c08e23	-0.05131226693654536
34	0xbf88d396933b9ded	-0.01212232243365371
35	0xbfbd6ab081c8ce81	-0.11490920227589109
36	0x3fb8efab2ad7e5c9	0.09740705295543885
37	0x3f856f50e1640062	0.010466224554420648
38	0x3fb08fd5f5f21052	0.06469475988893805
39	0xbfb13dd41f2df221	-0.06734967957704231
40	0x3fb53884f9de9c4f	0.08289366817790376
41	0xbfb4d4fd0adc5468	-0.08137494578507332
42	0xbfa4e1b53992c682	-0.0407845146923025
43	0xbfc48e5b31245522	-0.16059436702259072
44	0xbf4838a1197d5b3a	-0.0007391726130475459
45	0xbfa9d6812f5bc720	-0.050464665442531365
46	0x3fb6989d15a327de	0.08826619890456253
47	0xbfa129d2317879e5	-0.033522194422619646
48	0x3fbc5061654e9cfa	0.1106015083629365
49	0xbf91bc99401f180f	-0.01732100919596041
50	0x3fc047b48395a768	0.1271882669928417
51	0x3fb209e1a2a60b19	0.07046327801621678
52	0xbfb6c35e6eff14f0	-0.08891859254716272
53	0xbfbe561b19eb28b7	-0.11850137121942593
54	0x3fd54a6b876f8162	0.33266723848466573
55	0xbfa8e0bf7ba57785	-0.04858969101290626
56	0x3fc60a479df74905	0.17218871319943943
57	0x3f9b04d911e41805	0.026385680882434332
58	0x3fa05c7c1b0d2a7a	0.03195560293405193
59	0xbf977ffe55bb6097	-0.022949193937933456
60	0x3fac87ade9623d6c	0.055722651232936155
61	0x3fa0e22748595e5c	0.03297541387717892
62	0x3fc02fe2ca059592	0.12646136154505122
63	0x3f52871558184d9d	0.0011308391989402818
64	0x3fbbfa87980fd0c3	0.1092915292973116
65	0x3fb0f4803c72be80	0.06623078799997906
66	0x3fbd0b1d6ea81829	0.11345085097863773
67	0x3faad0bbe98e4ffc	0.05237376428627269
68	0xbfbe33452b3a56df	-0.117969821027454
69	0x3fc053836063ce20	0.1275486202863343
70	0x3fa23cbc0dc4ce73	0.03561961811138028
71	0xbf536e59b1996240	-0.0011859775462622762
72	0x3fbfeb37c61dd636	0.12468288981275397
73	0xbfb0c31d820d86bf	-0.0654772226821718
74	0x3fab6f7a9f8efe4f	0.053584892251362086
75	0x3fc6f8f9e86b2a85	0.17947315071645079
76	0xbfa0507313687591	-0.031863781088968264
77	0xbfa31f14080f28f2	-0.03734648321513302
78	0xbfc1498f615cb510	-0.13505737546930918
79	0x3f940ed8b89b3372	0.01958788515803484
80	0x3f9a0cdcb69396b8	0.025439690250002228
81	0x3f9630f5d04e4d3b	0.021671143378239704
82	0xbfc00a42a0da1e75	-0.12531311849692242
83	0x3fb7b8c315548c34	0.09266299505957037
84	0xbfb4f195f87bf281	-0.08181130711086305
85	0xbfb2dd6627f1c557	-0.07369078135686401
86	0xbfa592541741e440	-0.0421320227041595
87	0x3f975a2ae18d7f0c	0.022804899231572626
88	0xbfb84c2eca22ebda	-0.09491245684596042
89	0x3fa8b8864f9a234c	0.04828281137185417
90	0xbf9d26ea175c7e96	-0.02846875922762012
91	0x3fc644875618998e	0.17396632865820688
92	0x3fc5a1b9e07b4dde	0.16899798832910923
93	0xbfc1fc62e4679fba	-0.14051471855714032
94	0xbf94082acae63bfc	-0.01956240523719187
95	0xbfc2eb238e11c345	-0.14780086934072237
96	0x3fe1a5a5a6b5689b	0.5514705902126197
97	0xbf8416e4c2dccca1	-0.00980929107354306
98	0xbfb8d984215724b1	-0.09706903280234049
99	0x3fc10c177afa0435	0.13318151001661396
100	0xbf84500380344026	-0.009918238973597292
101	0x3fb4c27a7ebc5077	0.08109250635271957
102	0xbfbf9adc4a32e404	-0.12345673381322803
103	0x3fd1e66d9f5bff00	0.2796892219775913
104	0x3fd64dcd53cee603	0.3484986608924318
105	0xbfb456516810bdba	-0.0794421080652147
106	0x3f85a7b05cc04a7e	0.010573747473278102
107	0xbfc0b4c09a0f2f58	-0.13051612398555323
108	0xbf426792c4aa209e	-0.0005616633073524285
109	0xbfab7862c59cc4d5	-0.053652845976452625
110	0xbf970c2a3b83c64f	-0.02250734318017172
111	0xbfb3ea5de40c49dc	-0.0777949029691522
112	0x3fabf384b2286522	0.05459227251794575
113	0xbfc67c5617f99540	-0.17566944285059982
114	0xbfc6b4122ce77d13	-0.1773703307398838
115	0x3fc0f1df2690d3d1	0.13238133795826326
116	0x3f9bc877e1d0bd0d	0.02713191333549241
117	0xbf7b2fe61ab08e6d	-0.0066374767730256025
118	0x3fc958eb383a7899	0.1980260872414348
119	0x3fac1ae71779ecf6	0.054892751327281816
120	0xbf52c254fae71c98	-0.0011449651607209673
121	0xbfb5cfe2ae403474	-0.08520333055658275
122	0x3faee69f04a73500	0.060353249853145385
123	0x3fc7b36645780094	0.18516233818082084
124	0xbfb007966f172595	-0.06261577808540715
125	0x3f95896687ed00eb	0.021031953855754997
126	0xbfb233aacbe54ee1	-0.0711008785049745
127	0x3fc6b47cc0b8d3e7	0.17738303575757117
128	0xbfb17adfc6ff17b1	-0.06828116043388267
129	0xbf965885479fdaed	-0.021822054382904566
130	0xbfc067f159bd7f24	-0.1281720817742037
131	0x3fb996c566955dde	0.0999568343589696
132	0x3fc30afd220c09c9	0.14877285158588752
133	0x3fb2bb077e84c9ef	0.07316634024463274
134	0x3f96d2dd0e083aee	0.022288755399183673
135	0xbfc4ee17490d05a9	-0.16351595942437072
136	0x3fb8a039e9fd2a19	0.09619485819454389
137	0xbfb139f81096e9ef	-0.0672907867910124
138	0x3fd0f7ee31006ec0	0.2651324728519562
139	0xbfb21232a2a0dd7b	-0.07059017630023405
140	0xbfbae55c612bf2dc	-0.10506226894717535
141	0x3fa53955153ce208	0.041453036158092316
142	0xbf9432ee136aba03	-0.019725532469857764
143	0x3fa68731c22340b9	0.04400020117611931
144	0x3fc1a9fc65b08d32	0.1380000587970272
145	0x3fc22fe0de4fe974	0.1420861325748991
146	0x3fcb4a20e578d00f	0.2131997223347075
147	0xbfbcff75728de737	-0.11327299162612979
148	0xbf761f61edf141f9	-0.0054010224694853665
149	0xbfcf493dd2dc1c0a	-0.24442265315903483
150	0xbfb1f46774c458d5	-0.07013556099659309
151	0xbfbbda945df446d4	-0.10880400937846996
152	0xbfa5660f1e49b535	-0.041794273803001415
153	0xbfb0055a0393b248	-0.06258165919616332
154	0xbfa42e0d3fec02d6	-0.03941384702011923
155	0xbfd00148d9d7d95a	-0.2500784041761982
156	0xbfc7dfdeeddb2d2c	-0.18651949514456
157	0x3fca19ff8a3efbb8	0.203918402197784
158	0xbf93d0ec2b43447f	-0.01935166372351604
159	0x3f621fb1607dc6c2	0.002212377967162422
160	0x3fb02e268e8fd4cf	0.06320420246614165
161	0x3fc76e0a800ffc36	0.1830456853203672
162	0xbfae93d71c32eded	-0.059721681778196124
163	0xbf9a56387020844e	-0.025719529956522096
164	0x3fc754ab97ae08b2	0.1822714319824335
165	0xbfa2394e255e37ba	-0.03559345441963964
166	0xbfb1eab9fb984182	-0.06998789207887593
167	0x3fcc893b017ee889	0.2229379422477147
168	0x3fc84504fdf4aaa3	0.18960630798513475
169	0x3fac5f532e0f4c29	0.05541477143528823
170	0xbf8e0ac63f652193	-0.014668988046324915
171	0xbf7e87a397cd1995	-0.007453574214031274
172	0x3f630bbd83406ff0	0.0023249341411553034
173	0xbf82f52e06ed14ca	-0.009256705843322516
174	0xbfb2aa7959665e4c	-0.07291372711767358
175	0xbf854bcd79ea68f2	-0.010398488314696117
176	0xbf57ac39b5c0f593	-0.0014448703359585021
177	0x3f6c32af36f8e008	0.0034421369707864392
178	0xbf8fcc6d69c85b01	-0.015526633063058794
179	0xbf986665b5ac40e7	-0.02382811471312687
180	0x3f2630f794fefec6	0.00016930601350217104
181	0xbf7f0756863ce9b4	-0.00757535742359965
182	0xbf9bac4816bd98c9	-0.027024389636971322
183	0xbf8b624dad09bc9e	-0.013371092646791202
184	0x3fa21b74e7b90f78	0.0353657276978358
185	0xbfa3ce8dc3684ac6	-0.03868525514930847
186	0x3fa051451301f5c2	0.03187003953005842
187	0xbf933f9a628ec76a	-0.018797313943373174
188	0xbf7ff9adc237365b	-0.007806471581216802
189	0x3f864b7c7c5c6daa	0.010886166138837822
190	0xbf9a86e149d8e406	-0.025905151493336852
191	0xbfc0ba9c7b3ac25a	-0.1306949235636406
192	0xbf929d980ee2db59	-0.018179298313693113
193	0x3f74de31d23f337a	0.005094713796961576
194	0xbf66cf336d1ef9ed	-0.0027843479556104362
195	0xbf9d833fbab53811	-0.02882098748278145
196	0xbf8539df63079575	-0.010364289483684822
197	0xbfb42b28dae8e1ae	-0.07878356308436338
198	0xbf9e4838ec324095	-0.029572381416585875
199	0x3fc21039c2c40067	0.14112016687431891
200	0x3fb0027c79bc5344	0.06253793689786585
201	0x3fc1365bf419b940	0.13447141093224424
202	0xbf947bf9209a5623	-0.020004170050546343
203	0x3f911a22b0494693	0.016701261529596122
204	0xbfa05cdf6a7da376	-0.031958562611925354
205	0x3f84508823b923b9	0.009919227209268177
206	0xbf8a20ce956c2df7	-0.012757886824622295
207	0xbf90bb3ca54df6f3	-0.016339252080334665
208	0x3faed13d37500a67	0.060190117837937866
209	0xbf9239a79123869f	-0.017798059686248476
210	0xbfb7257acc9c9d82	-0.09041564460186716
211	0xbfc633226d7c9195	-0.17343550058388915
212	0x3fa1d44a109d5d51	0.034822763946687936
213	0xbf6e9724d039f4d5	-0.003734180356160447
214	0xbf41ac74a13cff60	-0.0005393571359277698
215	0x3f636d1436f145da	0.0023713488404062235
216	0xbfaa64d7bff0ae45	-0.05155061929721375
217	0xbfb0422f8f8b4834	-0.06350991491788777
218	0x3fb988b1eebe35b0	0.09974205092131316
219	0x3fc1a0f322256608	0.1377242962578722
220	0xbf8f85a905d60b58	-0.015391655436138116
221	0x3fc5f62db378578b	0.17157527220905097
222	0x3f86ac3e4ac52533	0.01107071557693704
223	0xbfbce38398d067b3	-0.11284658890545422
224	0xbf8d825023cee7e0	-0.014408708660869907
225	0xbfab3329e0a240f9	-0.05312472216712822
226	0xbfb9d1794a7a3fbc	-0.10085256641673274
227	0x3fc10bb385f05e40	0.13316959419238295
228	0x3fb5725fefe067d4	0.08377647024499818
229	0xbfa482ac413ea754	-0.04005945488400067
230	0xbfb0b7a9b2806a8d	-0.06530247314405298
231	0x3fb3e10a56caa12a	0.07765259379323611
232	0xbf81374ef2f08ca6	-0.00840627364056552
233	0x3f615705dd2bf63b	0.0021166910677255213
234	0x3f8a031bfaee10df	0.012701243014597128
235	0xbfa8091e7d38fc62	-0.04694457319828228
236	0x3f9e7716c81c65c6	0.029751163448144678
237	0xbf53551a97c602e8	-0.0011799583145092832
238	0xbf7aa690fc6373ed	-0.006506506301062293
239	0x3fb205628818758d	0.07039466688771352
240	0xbfac6f4ea45dab04	-0.05553670650882306
241	0x3f876b299d3f83f6	0.011434865104037666
242	0x3fd5bcc71df0cd76	0.33964708255663056
243	0xbf76ba43a7956ee4	-0.005548729205965695
244	0x3fb8c484debc0760	0.09674864232877445
245	0xbfbe612b1f50f151	-0.1186701728301547
246	0x3fc02295fe2b0994	0.12605547819664464
247	0x3f89142666eb6f66	0.012245464340075517
248	0xbfa27b946bdd73ac	-0.0360990888282012
249	0x3fc13da54561f532	0.1346937741072139
250	0xbfbad5e193ec3214	-0.10482606755631024
251	0x3f4eb848db2e6411	0.0009374957793283363
252	0x3fc3b6e97bbb7121	0.15401953260050852
253	0x3fc23042a965ab14	0.14209779044480142
254	0xbf9d5604dfed19e6	-0.028648449103707473
255	0x3fa09b39f23abc26	0.032434283083937296

NeuralNetEvolution.4.bias f8 [42]
0	0x3fc39ff62f840437	0.15331914253332155
1	0xbf95f2d189ee20ee	-0.02143409160956449
2	0xbfbc66bdf032e086	-0.11094271768786443
3	0xbfaf3b078433e87b	-0.06099723328402803
4	0xbfc2db91cdc044ae	-0.14732573076665773
5	0x3faa6fae5adffb4c	0.051633308976298226
6	0x3fa37f1423dc0030	0.03807890832649752
7	0xbfb428ed5d0ee189	-0.07874949953009582
8	0xbfd99ed27ebbed0e	-0.4003187406194265
9	0x3fa82cef220442f7	0.047217820074484544
10	0x3fc24d1e56643bbb	0.14297847002350558
11	0xbfb8006c89e9daa1	-0.09375646941212291
12	0xbfb367ebc5be6525	-0.07580445840575985
13	0x3fbc028b488103b6	0.10941381950489312
14	0x3fa84286c3eb3995	0.04738255635821812
15	0x3fb44cefb0c2cf4b	0.07929895463422303
16	0xbfc48b554d8a0021	-0.1605021122559274
17	0x3f656a9b947c2d06	0.0026143110916386795
18	0x3fcab2876473e990	0.20857326893731143
19	0x3fa0e062288d4c57	0.03296190972346185
20	0x3fbda7a9a725d225	0.11583957987551992
21	0xbfa86821ea45f9da	-0.047669467780895494
22	0xbfb44d901004506f	-0.07930851355587419
23	0xbf703f09276f9c82	-0.003966365583415345
24	0xbfc3b719d8503bca	-0.1540252977578958
25	0x3fc2e598db804973	0.14763174741581117
26	0x3f9afb62b16d535d	0.026349584655082626
27	0x3f8e9d450ac92df8	0.014948405639322523
28	0x3f994babf0ff823b	0.024702726921420597
29	0x3fbbc52dfa8537ff	0.10847747198315004
30	0xbfb98df08cc7df0f	-0.09982207715063061
31	0x3fc1a51cdc8aa47e	0.13785134094840495
32	0xbface1a2164ac5e1	-0.056408944340897944
33	0xbf88ab3320206d34	-0.01204528753083043
34	0x3fab7ce082a02c38	0.053687110848919806
35	0x3f8a3a9c87ad4001	0.012807104959989603
36	0x3fbf31560a865643	0.12184655911399837
37	0x3f960cfe6066f741	0.021533941873477905
38	0xbf89868a441267ef	-0.01246364612807224
39	0xbf99c814628e9a02	-0.025177305713123495
40	0x3fbd402282218c2e	0.11425986935641738
41	0xbfc7aef0d957390c	-0.18502627003039895

NeuralNetEvolution.6.weight f8 [3, 42]
0	0xbfcbfde8fa458cb8	-0.21868622036263274
1	0x3fdc3092cb98351f	0.44046468622475915
2	0xbfcc2c2263515cba	-0.22009687280180917
3	0xbfae8afc6fad5011	-0.05965412963146844
4	0xbfb6d8e71a482d80	-0.08924717322968512
5	0x3fae3d22953a68bd	0.05906017371781178
6	0xbfccefbd773a010b	-0.22606628724680208
7	0x3fc3782f9e0a0e2a	0.15210528580438282
8	0x3fc8deaa5912b1a6	0.19429520940083228
9	0x3f86f0c076543880	0.011201385127176389
10	0x3fc7c1aff5beb49f	0.18559836863770315
11	0xbfb5683d5deb8c69	-0.08362182181331125
12	0xbfd471dc795c4245	-0.31944953776931967
13	0x3fcf2eca87ebafb8	0.2436154521632241
14	0x3fd0947ec56821bf	0.25906342771534335
15	0x3fcbaaa1de576198	0.21614478451261898
16	0xbfd528a39fc9faaa	-0.3306054172934788
17	0x3fcfa4a85d1fc282	0.24721245333741498
18	0x3fcd5f5672e7d827	0.22947197542788553
19	0xbf72e4f8453d93ce	-0.004612893873717062
20	0xbfd0198c09543e5f	-0.25155926619570396
21	0x3fdfbb3c4a2369b2	0.4958029483801979
22	0xbfcccf0e7b6c9ae6	-0.22506886507581852
23	0x3fd2906abc568b11	0.2900645102728712
24	0xbfc7554556fdbb9b	-0.18228976009001205
25	0xbfd6050958cd250d	-0.34405740425116066
26	0xbfd9302e18ff7ff9	-0.39356567803588366
27	0x3fd3d0e6c0466d15	0.30962532784333635
28	0xbfc0ab8d7760709e	-0.13023536995831803
29	0xbfba807bce1c29a9	-0.10352300436003382
30	0xbfde45ad8a227abd	-0.47300280084338536
31	0xbfc3c80fc49691a6	-0.15454289530783888
32	0x3f999d17241aa01c	0.025013314798940298
33	0xbfa8f6a677db093c	-0.04875679219323323
34	0x3fb7dad182890dd1	0.09318265377901659
35	0xbfcbd5faec50fa7b	-0.21746765650637542
36	0xbfb9726471d9393d	-0.09940173892502897
37	0x3fce3a51bfaa1695	0.23615476473439814
38	0x3fd176ff65053fd2	0.27288803925784777
39	0xbfb0744f6fe2d16d	-0.06427475434867853
40	0x3fab4e302e91836e	0.053330903706188745
41	0xbfd26dc3e47bc8b8	-0.2879495364460456
42	0xbfc10dab8974a9db	-0.1332296773119442
43	0x3fab45a2b9079e48	0.05326565273918199
44	0x3f9d926568d3dc7e	0.028878769419830246
45	0xbf8a22034aa6b4cd	-0.012760186877893176
46	0x3fa1cc2b161466e9	0.0347608055546525
47	0x3fb26bcf5462e00a	0.0719575482388565
48	0xbfb63c3fd7bf12b7	-0.08685683266873921
49	0x3fb52179ecb1553f	0.08254205731039564
50	0x3fddd1dac604486c	0.465933507323945
51	0x3fb7a238ef926c1f	0.0923190674679266
52	0xbfb813a7b9901a36	-0.09404991417259442
53	0x3fc70e30f3902827	0.18012058155756103
54	0x3fc2af94021c2214	0.14598322012922493
55	0xbfc1dbf983d79e17	-0.1395255941163078
56	0xbfc2e731877f6b15	-0.1476804648981093
57	0xbfb3d8a0bc74eb7e	-0.07752422905916309
58	0xbfa554e10f36a0fa	-0.04166320143423437
59	0x3faeca47cf48e640	0.06013702779132446
60	0x3f7ab83bfc703490	0.006523355789807131
61	0x3f89ec3c621acb05	0.012657615417400967
62	0xbfc3a34b64003fce	-0.1534208524976734
63	0xbfa20f7e91ab5793	-0.035274462968728625
64	0x3fcc480ebecd7ac6	0.22094902340446348
65	0xbf9f57d2c84398df	-0.03060845706286208
66	0x3fc5923a92c6d580	0.1685250488932688
67	0x3fb0613d9a5da5ef	0.06398377436348544
68	0xbf9014ae5a16ac24	-0.015703891991204824
69	0x3f92adfcc7c0d866	0.018241834346746442
70	0x3fc3a1862620147b	0.1533668218764069
71	0xbfb3c93507f780bc	-0.07728892750265265
72	0xbf76ff99d14f776d	-0.005614853715966689
73	0xbfbdfe7d8913e5f4	-0.11716446491836746
74	0xbfb4fb4b0c4f64c3	-0.08195942926922144
75	0xbf6476bf4bd1bedc	-0.00249802935154962
76	0x3fb37bfa603c2559	0.0761105046223255
77	0xbfbc8c07113f9e14	-0.11151165171724414
78	0xbfc148dd0f0f6e1e	-0.1350361178909773
79	0x3fbb22c5ed4deaf2	0.10599934619487408
80	0xbf805a3636086849	-0.00798456528086801
81	0xbfcbfc677843fd8b	-0.21864026424735203
82	0xbfc38dc7f9566b47	-0.15276431727110149
83	0x3fd5656ad6505111	0.33431502274585606
84	0xbfa3639c03c653ee	-0.03786933466032126
85	0xbfa1a0d8e48de83e	-0.03443029203386104
86	0xbfd8c185eb2f536f	-0.3868117138602462
87	0xbfd8b91a55962af2	-0.3862977824980326
88	0xbfc01f7ed8eba4f5	-0.12596116630383106
89	0x3fb994ba21823b91	0.0999256450470354
90	0x3fb5b9288d29e231	0.08485654302956715
91	0xbf96f2b394fd5293	-0.022410207718467644
92	0xbfda9792406abece	-0.41550117769928085
93	0xbfd58396506e0213	-0.33615644316162835
94	0x3fcb51080fd50d6a	0.21341038487490077
95	0x3fceb9ca12e2de31	0.2400448410241878
96	0xbfd688bc9db8bb71	-0.3520957508325671
97	0xbfc8b0e1d21b1867	-0.19289801367830536
98	0xbfb4adc659143ef0	-0.0807765929678188
99	0x3fa97d6e2673136e	0.049785082047981585
100	0x3fca95d83792e13e	0.20769789422571167
101	0x3fb8fee6100828ec	0.09763944522288498
102	0xbfa9096084d953e0	-0.04889966603938212
103	0xbfd526dc9435961f	-0.3304969260555896
104	0xbfc581172c3f29b2	-0.1680020299957739
105	0xbf96b3b33210a8a3	-0.022169876032571378
106	0x3fb74a1a8901ea6c	0.09097448201092967
107	0xbfc8f272bdf3ac37	-0.19489893221848018
108	0xbfd3075d554ebba4	-0.29732449847045417
109	0x3fd9284ae239a559	0.3930842599134699
110	0x3fbc62ff0628b9d6	0.1108855619465666
111	0x3fd34362abbed843	0.30098788043995145
112	0xbfbb8e0af7037ccd	-0.1076361516056636
113	0xbfd97a87386034bf	-0.3981035280747384
114	0xbfd87ca0aa0b4642	-0.3826066647135101
115	0xbfd6c8647b4a143d	-0.35598098793008487
116	0xbfd45f546cd1825a	-0.31831846834942257
117	0xbff0b0df31045028	-1.0431816019745472
118	0x3fe4c6609d70d195	0.6492159914983399
119	0x3f8f854cc8e87495	0.01539096820948264
120	0x3fce8a1bf3acd295	0.23858975790212314
121	0x3fddd2a05a6a85f9	0.4659806139917176
122	0x3fd25bb2e142d2f9	0.28684684751651407
123	0x3fb661afa0329975	0.0874280706508211
124	0xbf985bdfda826068	-0.023787973129032386
125	0xbfe69d7c78d391df	-0.7067243919269081

NeuralNetEvolution.6.bias f8 [3]
0	0x3fa8831dc6265a10	0.0478753380186171
1	0xbfa9f40a224d12ce	-0.05068999928201877
2	0xbf99ab951b2b795b	-0.025068597586931456
