benchmarks/checkpoints/checkpoint_benchmark2_dense.pt (torch, 74700 bytes, 15 tensors)

e0 f8 [43, 2]
00000000: c40a 26b1 7725 f1bf 88f7 5225 588e d6bf
00000010: fab3 576d 340d d3bf 9427 18dd 628f ccbf
00000020: dc96 1ab9 c54c bbbf d04e e51b 1dda c4bf
00000030: 1d10 e18b ceb9 f0bf 13d6 309b 0ba9 d6bf
00000040: c837 5c76 036a b9bf 775b f0bf 5121 a8bf
00000050: 3133 45fa 3d74 813f ef07 ca64 aa31 c63f
00000060: 31e9 690c dee0 a83f 0ba4 27b5 d8dc 963f
00000070: 52f8 8d22 41c8 c03f 4c20 f883 fa07 bbbf
00000080: e662 f514 2d73 d1bf 6af1 0937 f8f1 c8bf
00000090: a077 2697 6618 a13f 5a37 84dc 02e0 963f
000000a0: f4d6 a40e a2b9 ebbf 2981 a714 9516 d6bf
000000b0: 4f8e 9e96 8b1a 783f f678 afa0 b931 c63f
000000c0: 6556 f40b 6f10 b2bf c8d6 22af 0936 d3bf
000000d0: 1a0f bad0 d869 d7bf 705a 709e 862b c0bf
000000e0: 2b8e f587 25dc e5bf fe65 bccc db01 d0bf
000000f0: 3dbe d54d 9da7 e1bf dbd3 afdb a5a9 c6bf
00000100: 6377 d266 c329 ebbf 4aea 18e7 da3d d1bf
00000110: 4b78 1773 5d26 e7bf 628c b7ad 0e9c cbbf
00000120: e29e 29ca 662b ddbf b1df 0cf0 732c c9bf
00000130: be18 8d48 9e1e e3bf c6b4 5f9f 0c2f d1bf
00000140: 818c 2b5b 30f9 dcbf a697 aa4e 1429 d5bf
00000150: eb09 c958 0e3e c4bf c9e5 f6b7 a212 c1bf
00000160: e070 e73f c279 c83f 8913 cd97 d271 c8bf
00000170: 4f53 e9ab 6575 b83f d2b9 461b fa1b d2bf
00000180: 4059 479a cd64 e6bf 6216 226f 5cfc d5bf
00000190: c8e0 8e29 29f3 b7bf a4aa 05d3 423d d3bf
000001a0: 1f5f 9b0d cba6 e3bf 3d81 948c c98b cbbf
000001b0: 0403 0c63 1d49 b3bf 603c dc36 e80d a8bf
000001c0: 0832 eab1 95c2 d5bf f799 418f 492b c0bf
000001d0: 65b3 4b3d f93d d6bf 08cc 1600 1344 d4bf
000001e0: 853d b9ab df92 923f 79a1 f5cf 4ac2 cd3f
000001f0: 7cf0 bf96 29fb acbf ca28 c818 f896 ab3f
00000200: 623c 1f50 21c2 c2bf 9734 2757 d01c bdbf
00000210: 52c6 f444 f712 c63f 1119 7789 4c35 d1bf
00000220: 5bc6 05fd 8a22 e0bf 6c18 3709 33a7 c6bf
00000230: 622c 2338 05b4 dabf b809 1cf2 ed2d c4bf
00000240: 19c8 6bc9 7ea6 c1bf 330f f983 872c afbf
00000250: d9a6 ee32 a427 d0bf 541b 0d09 e409 c5bf
00000260: 8ff8 7c4b ed54 e3bf 8a69 d4e3 71f9 ccbf
00000270: 3094 7dc7 3fb3 bbbf 3a2a 6d29 b9b6 a13f
00000280: 8110 cf87 e0bf ad3f 1f7a 9dca 630e a23f
00000290: defa c7b3 bcde debf 6a70 3d08 fcd5 cfbf
000002a0: 8200 c42a 44e2 d6bf c7d9 e12e f99f ccbf
-1.07164735029862 -0.3524380077832281 -0.2976809566305857 -0.22312579913733244 -0.10664020318162265 -0.1629063020906103 -1.045362993624628 -0.35406770854328434
-0.09927388801244696 -0.04712920635227296 0.008522495460647402 0.1733906738409696 0.04859060193571663 0.02232683759385527 0.1311112803195465 -0.1055904934111151
-0.2726547913239713 -0.19488432586139065 0.03338928790184004 0.022338909825570276 -0.8664102827085274 -0.34512831704161556 0.005884690539378192 0.1733924898716805
-0.07056325952393079 -0.300173207312906 -0.3658353842113101 -0.1263283036830276 -0.6831233649685989 -0.2501134395002679 -0.5517107506002003 -0.17705224253555127
-0.8488480575794991 -0.2694003350076498 -0.723433232105671 -0.21569999201082896 -0.4557740186923934 -0.1966690942879246 -0.5974875847830601 -0.2684966617951655
-0.45270928290683093 -0.3306322830416043 -0.15814380011768434 -0.13338121397627692 0.19121578331294753 -0.19097359096681668 0.09554133841568312 -0.2829575792665341
-0.6998050702339143 -0.3435278973850925 -0.09355408920862651 -0.3006140766871488 -0.6141104951629791 -0.21520346988928366 -0.07533439319741936 -0.04698110265427924
-0.34000151037687987 -0.1263210248464046 -0.3475325678435211 -0.3166549206609379 0.018138403755356265 0.23249182848236297 -0.05660371747214385 0.0538861780406293
-0.14654938137252588 -0.11372091415178641 0.17245379321097914 -0.26887811111773013 -0.5042166654440722 -0.17697751951181162 -0.41723757249991966 -0.15765165635828082
-0.1378935321332058 -0.06088660703656359 -0.2524195191750614 -0.1643643421359352 -0.6041170572641635 -0.2263624536943321 -0.10820387478231974 0.03459719305699989
0.05810453088591406 0.035266035540861156 -0.48234479481463477 -0.2487177887186392 -0.3575601976044781 -0.22363199986621238

NeuralNetEvolution.0.weight f8 [42, 6]
00000000: 2a75 4a24 bfdc c03f 2321 b9a6 07b7 ce3f
00000010: d64e 7d68 a20f e83f 5d1a f9ec 20d8 b0bf
00000020: 6046 c099 a20c d8bf f4a6 394d a3ef c7bf
00000030: bca1 6957 b82a d2bf 46a6 7238 061d d33f
00000040: fe7a 76d5 8c97 c53f 5351 e59a d823 db3f
00000050: d09a 854f 1ae8 b9bf 9080 e9a5 01c0 cebf
00000060: d3d3 145d 0439 d93f 81d8 6c50 fbd5 cf3f
00000070: d2f5 7f73 3268 c93f 9d77 3d65 bae6 de3f
00000080: 89a0 f6c8 4cb1 c7bf d2fa db20 7164 d7bf
00000090: 8ce3 c011 d303 c13f f0a8 7c49 27e0 9c3f
000000a0: 34dd 5fb8 a44c d03f 2b18 ebfa fb11 d03f
000000b0: e755 0e02 24b7 df3f c507 aa2d 6c9a d4bf
000000c0: 9082 218b 19f9 c4bf 8d0a 63f9 f2e4 cd3f
000000d0: 7b8d ba3e 35fa b23f 0ea9 4a9b d719 d4bf
000000e0: 8a7f e618 6cc1 d53f 0cee d20b 905f d2bf
000000f0: abc5 d16f fb41 d93f 80f9 4870 bffa 81bf
00000100: b7eb d35c ab63 c33f 554b 34cf c07e cf3f
00000110: 4f93 81cf e146 e03f 1b48 f43f 5a5e dbbf
00000120: b7cf 7bc7 e4c5 e03f 866a 4496 c467 bf3f
00000130: 8cf1 1327 6ed4 9d3f 6126 e73b 33a9 cbbf
00000140: aa95 9171 6004 d93f fbec 2f72 0c5e db3f
00000150: b572 1d75 6517 ce3f cb80 84ef b47a cebf
00000160: 20f8 34fb 3e97 c33f 2dfc 098a 18a0 a63f
00000170: 60fe 78b4 59bc ccbf 3ed7 21a6 87f7 db3f
00000180: 4fa5 29bd 517b d53f 54f9 60d4 1c51 e53f
00000190: 7a2e 0e0e 89d3 dcbf 5b3a b095 7b53 cfbf
000001a0: d442 5e7b dd58 a4bf 3c3a 7302 bd83 d0bf
000001b0: 5614 622a 9bd2 d43f 681f 628d c791 cd3f
000001c0: 2c08 8117 1a62 a5bf 93b5 4a95 9d67 d6bf
000001d0: 2db7 c20e 535a d93f 4956 27f1 a148 c8bf
000001e0: 9edd 9ceb a73e debf ca8b f94e 7852 e43f
000001f0: 879a b6a2 240f d63f 595e df69 2344 c53f
00000200: dc16 e391 61bb 8f3f c66e 57a4 c2c0 cebf
00000210: b16d 8aa1 b058 88bf 7415 f597 52c0 c4bf
00000220: 8dad fece 8967 d5bf d8bd 5234 5550 e7bf
00000230: bf2f ad3b 50f5 d4bf 174b 9b1a a490 d2bf
00000240: ebef ccb3 1731 a3bf f79c f107 c99a d03f
00000250: 2119 8410 fdf7 e93f b165 31a0 566f cf3f
00000260: 7d7f e899 8c67 d83f cc2c a5b0 edcf c8bf
00000270: 592d 2a33 d10a d83f f0d7 53a7 1f2b c23f
00000280: 9dfe cff1 63e7 b2bf a59b 703d 8e37 d43f
00000290: 4720 d887 9dce a83f ece2 ce57 e5b9 c73f
000002a0: 6a53 3ff0 9c80 bc3f fc1f a4b4 5959 de3f
000002b0: 0a7d 276f c7f2 d63f cb4c a76b f22c b2bf
000002c0: 2da4 2b96 1036 cc3f 4e0e 544d d3ca d63f
000002d0: 0c8f 2098 c373 bd3f c62b bf6d b1ac e6bf
000002e0: e948 42f2 eccb bc3f 0f3d 3318 31d5 b73f
000002f0: 1910 7da8 4ae2 db3f 22a1 d190 5167 d23f
00000300: 3459 4f1f f679 c6bf b319 0c9e 3f18 ca3f
00000310: 198d 4ee1 d041 a23f 2954 c72c 4df5 983f
00000320: 5fcb 6ce8 d3bb d7bf b1c9 7b6c 5f97 e33f
00000330: c749 5158 5a37 d5bf 3b93 0ea1 7849 c0bf
00000340: 13c2 a417 5ca4 cebf 4e00 7dbe 2a49 d3bf
00000350: 2d22 fbc8 1952 d3bf 0ab6 df7a d704 dfbf
00000360: a608 7d7b 81d3 d8bf 7014 7cbe 28ed d4bf
00000370: cda6 0731 892f ad3f 9cac 99e6 7fa4 91bf
00000380: a572 0550 dc64 d83f eab5 9a78 de7e b63f
00000390: e8ea 0620 cba6 d83f d10e 7f53 f571 d83f
000003a0: fd30 c1a9 e1c4 d93f 8a0b a13e 64d0 d73f
000003b0: b780 6fff 691d da3f f459 c56d 1a72 c2bf
000003c0: a013 0e1b e38d bfbf 5ca5 cf40 1ef6 dabf
000003d0: 5deb e77e 22a6 bbbf 9fe0 c023 68ab e2bf
000003e0: 30d4 528d 0034 cabf 848e 342b 265d cabf
000003f0: 5afb bc07 0674 94bf 401b c91b 0b95 893f
00000400: 97c2 a786 2469 e63f d477 bb4e 7649 c23f
00000410: 5555 eded b127 c53f d620 7157 f54c 923f
00000420: 010a 927f 7756 b43f fa10 f1d3 bc78 c2bf
00000430: f490 db97 756a e03f ebbe 2429 c3c2 d13f
00000440: 0d57 befb 91eb 73bf 26cb 8ec0 9c3a bbbf
00000450: 1e55 fe2a 22ae d2bf 21b8 0e9d 01d7 ac3f
00000460: a357 ed71 3d48 cebf 5297 3acb fb29 d4bf
00000470: 851e 12be 8abf d13f a091 c1e5 e1c4 98bf
00000480: a08f 80d4 bff3 dabf f7ac e33f 8047 a53f
00000490: aef4 d773 4879 c6bf 91b0 2c80 3133 613f
000004a0: 5444 5b75 d041 de3f 78f9 df24 18d1 dcbf
000004b0: 0712 45b9 1c09 c33f ecbf 05ee e730 d7bf
000004c0: f884 1c73 c1ec d2bf bb12 3d0c b1f9 c4bf
000004d0: c047 c91b dd3c d8bf b0d8 effa 98c6 da3f
000004e0: d908 4e5e 8f4f e73f b140 7fe4 8059 c9bf
000004f0: 4387 a44c c02f c7bf ab4d e994 cbf3 99bf
00000500: 5a04 0225 5a81 dfbf 86e2 2e80 b1f4 9fbf
00000510: 5dee 373e 531f 8d3f 2f5b 370e 6492 d5bf
00000520: c592 c84a 425b b1bf 5faa 2e0c 663b b0bf
00000530: 07bf c3b9 d0e3 d73f 374b 3859 0e66 d7bf
00000540: 1e6c 1cb9 2870 aebf 177d 6355 1b24 d7bf
00000550: 94c2 67b9 174c e13f 70ad a549 8434 b9bf
00000560: 8322 af31 ec31 e0bf aa5a bc62 21d8 9ebf
00000570: e4b0 87fa 4401 e1bf 5575 f6e6 01ca c93f
00000580: 7b91 2806 b667 ce3f 5fb6 eb6e 5764 d73f
00000590: b682 dfd1 a3ff a0bf 57b8 543c 6432 d43f
000005a0: be80 d777 7350 dd3f 016c 5fd7 ec8c cd3f
000005b0: 19fd 63f1 5b4e e33f fd13 6f21 90be b83f
000005c0: ee78 82a7 8289 e03f 8eb5 a1b6 2dd8 cbbf
000005d0: 0530 f2a7 b384 a53f 19c7 b53e 851a d33f
000005e0: 356c c688 a454 dc3f a883 66fe dbed d73f
000005f0: ff34 c889 0b97 d7bf 1dc6 48d9 9172 cc3f
00000600: 9999 b360 a14c c5bf 0b1f efe1 af07 c6bf
00000610: a8a5 b25d 0a29 e63f 7b20 9a90 2b46 f0bf
00000620: cae6 8d55 e789 e2bf 46a9 c70b 4ada a0bf
00000630: 353e 47d7 fe77 ccbf f80c 5ac3 6b88 b13f
00000640: d9b1 e357 eee0 d6bf f40a 1ccc 67fa d43f
00000650: 603c 828b 09fc e0bf d5d9 5cba 5724 d03f
00000660: 2794 ce67 8228 d63f f903 1fb3 b916 d2bf
00000670: ef8c 5965 c765 d0bf 984f 045f cf01 c0bf
00000680: ffa4 c5e5 dfed b3bf 942c 11a1 9a44 d63f
00000690: 3da0 18f8 3c9f c63f 1fba 3169 60da c5bf
000006a0: 5eb6 d9ee 76f3 d8bf afe3 231c 9f24 de3f
000006b0: 6b7f 2e4e a68d e0bf ee75 2748 21dc d73f
000006c0: 8460 2157 96b6 c6bf 3cce d184 a1a1 d83f
000006d0: 90b6 701e 0039 d0bf d078 6bd8 9cb4 c23f
000006e0: ab1e 7f45 76c1 e2bf 1384 9cf9 5f0c bbbf
000006f0: 28bb 6b14 5384 c63f 2b00 decc 866a c83f
00000700: 39dd 1b6a a962 a2bf 8b19 3874 c7fc d03f
00000710: 4b04 e04b abd9 b2bf c8c8 89fd 73c3 d53f
00000720: dd23 2321 1138 ae3f 64c0 e779 dcac c8bf
00000730: 8eb1 8843 a11c d7bf 2bad 2666 6c91 d4bf
00000740: 6ccf 2e8e bdec e63f 064b 3fca 191f c13f
00000750: adfc 8f94 cc64 b93f 1cb7 4029 485f 9d3f
00000760: a324 6d20 80ba d13f dc83 0a5b 58f0 b03f
00000770: eb35 5882 701e cd3f c537 e437 fc92 d13f
00000780: 6ae9 70c8 5a42 6dbf 38ef 48ac 6c73 ccbf
00000790: 5d5d 5b27 2d79 d33f ad94 2eb6 fbf1 98bf
000007a0: 17cd 2630 1035 d83f 06ed 10d6 9a67 c8bf
000007b0: 77e4 f33a 8a0e b33f 89c3 421d 045f cfbf
000007c0: 7cac 984f 8860 b43f 0331 518e 6301 a43f
000007d0: ec75 ec81 8dd2 d03f 3bc7 79c1 fd92 9f3f
0.13173665306104826 0.23996062889842404 0.7519084969339598 -0.06579786096072256 -0.3757711888766604 -0.18700066824685957 -0.28385742699040484 0.29864650261388126
0.16868744299878097 0.42406287313976526 -0.10119785729839781 -0.24023457146813998 0.3941050442693356 0.24871770312319444 0.1984923423732839 0.48283252608040944
-0.18509826481500039 -0.3655054875270426 0.13292921416157488 0.02819882761029019 0.25467794423407786 0.2510976744055166 0.49555301857739525 -0.32192520579712564
-0.16385192197323706 0.23354947259038675 0.07413037091696666 -0.31407728352736874 0.3399305575530823 -0.28708268313104734 0.3946522323595569 -0.008779044737022401
0.15147916824920823 0.24605569951435294 0.5086525967459269 -0.42763382192163285 0.5241569420018014 0.12267712277063411 0.029130669722677235 -0.2161010782713673
0.39089213457767846 0.4276152720555754 0.23508899897105598 -0.23811971373743854 0.15305316225016075 0.0441901844505924 -0.2244979983533879 0.4369830248245882
0.33565181229513014 0.6661514423392796 -0.45041109440419513 -0.24473519143107833 -0.03974048739394723 -0.25804066886204047 0.3253543771646198 0.23101133731347123
-0.041764083260673907 -0.3500741918495233 0.39613796655145245 -0.1897165706165416 -0.47257421502168906 0.6350671331859925 0.34467426195116285 0.16614191693837446
0.015494119896526319 -0.24025757812966314 -0.011887912683326759 -0.16211922092240239 -0.3344444772180502 -0.7285562536180192 -0.3274727423456589 -0.2900781879263134
-0.037483921716983414 0.25944734359514093 0.8115220377519884 0.24558527776643538 0.38132014303300094 -0.19384547353033665 0.37566022869642307 0.1419410292652965
-0.07384323743462536 0.31589084625232494 0.04845135005240358 0.18536059176928832 0.11133747926153395 0.4742035163949365 0.3585680566302051 -0.07099833610782295
0.220399926495959 0.3561294799003222 0.11504766906778857 -0.7085806983462752 0.11248665728115594 0.0930967983324431 0.43568674520452216 0.2875560678717354
-0.1755969670181884 0.20386500565673557 0.035658385756756235 0.024373250825949242 -0.37083909700156953 0.6122281187838806 -0.33150347351798043 -0.12724216331585034
-0.23939086107704152 -0.3013407573926131 -0.3018860304551108 -0.48467051505471714 -0.38790928897300103 -0.32697504617710305 0.05700329516896616 -0.01722907872173761
0.3811560422380274 0.08787336773340085 0.3851802647365461 0.38195546297013744 0.40264169290163904 0.37209421268578835 0.408045291374957 -0.1441071544638387
-0.12325877581140654 -0.42127186135492933 -0.10800376508988792 -0.5834236810979013 -0.20471197987140632 -0.20596768483766337 -0.019973844740202785 0.012491308961342207
0.7003347997652608 0.14286688656187485 0.1652738963845574 0.01787169786646888 0.07944437851441678 -0.14430961941446424 0.5129955259294818 0.2775123502533307
-0.004863329169799047 -0.10636310292356352 -0.2918782634599938 0.056327867910440206 -0.23657959044311125 -0.3150624737412403 0.2773157936248725 -0.024188546798897925
-0.42112727882544654 0.041561134146684546 -0.17557626396584197 0.0020996062097734043 0.4727669855174714 -0.45026210404457556 0.14871558233620893 -0.3623599838674625
-0.2957004188666157 -0.16386998269640238 -0.37871482575894433 0.41837143426472334 0.7284619180575432 -0.19804392964443232 -0.18114475004500194 -0.02534406753905009
-0.4922700272946422 -0.03120686859958479 0.014219904266602851 -0.33705998791031083 -0.06779875112313068 -0.06340635106486435 0.37327974453999996 -0.36560400689011224
-0.059449455830155026 -0.3615787824509921 0.5405386563489452 -0.09845759199168014 -0.5060940714257217 -0.030121347094871943 -0.5314049618878269 0.20147727754094072
0.23754000950533424 0.3654993613443817 -0.033200377816461055 0.3155756558579745 0.45803534224797804 0.23086319462058216 0.6033153261813907 0.09665776077515882
0.5167859336541178 -0.2175347463375314 0.0420280592453253 0.29849368213682365 0.4426661811537003 0.373892782628952 -0.3685940595176617 0.22224639043410913
-0.16640107366329174 -0.17210958988129507 0.6925098257099096 -1.0171313904302497 -0.579333941553352 -0.03291541475103314 -0.22241197120318792 0.06848786849336708
-0.3574787004752387 0.32778353626797174 -0.53076627013969 0.25221818160517034 0.3462224973430374 -0.28263704769420844 -0.25621209046785415 -0.1250552381467258
-0.07784842834157145 0.3479372570915953 0.1767345630080416 -0.170726825107935 -0.38985989880788974 0.4709852003866741 -0.5172912146553988 0.3728106693868928
-0.17744712118542705 0.38486516924533354 -0.25347903225597523 0.14613686148999827 -0.5861159665446015 -0.10565757602718433 0.17591322419272015 0.19075093272476926
-0.03590897960924128 0.26542841290974967 -0.07363386728685943 0.3400545097312144 0.059021506590916074 -0.1927753062477705 -0.3611224326621362 -0.32137594199839964
0.7163989808091009 0.1337616193328232 0.09919432284367487 0.02868378402506898 0.2770080868400077 0.06616737578089221 0.22749143948060122 0.2745962663474269
-0.0035716794114055055 -0.2222724763140549 0.3042710193962728 -0.024360592836860807 0.3782387228231569 -0.1906617684597693 0.07444061221385022 -0.2450871603846532
0.07959796851416628 0.03907309639234493 0.2628511208330042 0.030834164556331017

NeuralNetEvolution.0.bias f8 [42]
00000000: 5ba6 7aee 3e44 d1bf 3e5e d9a5 b5c1 d5bf
00000010: 9a57 494a 4c19 a9bf cf4a 382e a19f d8bf
00000020: 7abc 56bc 5ed4 e23f c62d 6afa 6d80 cebf
00000030: d162 12b9 0515 903f 1bb1 a907 2208 a03f
00000040: 2f5e 50f7 4b08 be3f d969 9177 d76a e63f
00000050: 9967 a577 53a7 cbbf e034 14b3 91ae c3bf
00000060: ebf8 99b2 16ea 9c3f 5f9e 0794 6062 d0bf
00000070: afce 9d5a a3d1 c33f ef7a 54e3 0eb0 a4bf
00000080: 452b 3c78 f82c d23f 7ecc 573f 76b6 bc3f
00000090: 132a 4fc9 a18d a0bf ba56 5f4a ef77 9b3f
000000a0: 9f43 2f4f 2843 e53f 5c8c b4b4 faa5 d2bf
000000b0: 53e6 b7e3 9661 d43f 7119 855f 35f4 d93f
000000c0: 90bd cb21 7fbf a63f aaf6 5c29 ffa1 b9bf
000000d0: 60c5 7822 f888 cbbf a339 93ea 5a97 da3f
000000e0: c4af 6943 512e a0bf 8306 42f8 6a4f bbbf
000000f0: 042a f160 7865 be3f ed46 5349 06ac c53f
00000100: b059 e7d1 3ba4 e2bf e2e2 1898 478f b73f
00000110: be1c 0a32 130a a63f 2af7 c096 01fa c73f
00000120: 3093 991c 5c18 ca3f 8c9b 16a3 3c1d d4bf
00000130: d550 7aa6 f644 e4bf da89 0085 28ce d2bf
00000140: ae21 a54e c38d d63f db2e 7839 6dd9 cbbf
-0.2697903946778745 -0.33994809337807286 -0.0490211334878687 -0.3847430182806137 0.5884240797512483 -0.23829436042102098 0.015705193920981856 0.03131204932728534
0.11731409824312132 0.7005421958268087 -0.21604388563247026 -0.15376492733086078 0.028236727381675413 -0.25600447135955123 0.15483514713888755 -0.040405717134708634
0.28399478666021977 0.11215914770564159 -0.032330566238290136 0.02682470218117914 0.6644479319166868 -0.29138057372091963 0.3184563850223629 0.4055303032695497
0.04442975318476805 -0.10012812385408645 -0.21511747058097352 0.41548798473095355 -0.03160337398443816 -0.1066805702303331 0.11873581282376483 0.16931227283799136
-0.5825480556184655 0.09203002417860831 0.04304561601480249 0.18731708394073482 0.20386840244750593 -0.31428447653382174 -0.633418393279977 -0.2938329027985255
0.35240252189808075 -0.21757283502699107

NeuralNetEvolution.2.weight f8 [42, 42]
00000000: 131f 9399 dfe5 d5bf bf94 f8f4 4e18 d1bf
00000010: dc88 45ea b281 b6bf c570 3fea 316f dcbf
00000020: 03eb 1a05 6e16 d23f d458 762c e44e d1bf
00000030: afbd 30cd 6216 d7bf e359 8b12 ab06 b43f
00000040: 820d e6ea 7170 d03f 0f7d 9647 3291 cf3f
00000050: a618 d9fc e17d c3bf c022 6269 48e9 dc3f
00000060: f83b 22ce 0211 d6bf 310c 4e4a 9a58 d3bf
00000070: 6280 a282 c325 cb3f dc97 2229 d5d3 c33f
00000080: e903 d90f ce89 d73f f454 60a8 ccc5 d33f
00000090: 69a5 00f7 b9c3 ce3f f8b0 a674 3bff bebf
000000a0: d532 33b6 1a64 e03f bcad 761a bb4a c0bf
000000b0: c9ca 6b60 8b57 b33f 67d9 08b5 ae2a cc3f
000000c0: fb7c 00d5 ab73 873f 91ac 2ca2 9630 973f
000000d0: bcd6 820c 128c b33f 81fc a314 8326 c93f
000000e0: 3e80 1009 7d4d 9abf 73fc 761d 1ef6 a0bf
000000f0: 61ce 21f5 3856 c3bf 7f62 9ecf 1c5d b4bf
00000100: c4f1 a828 cb07 b2bf c94f 6a63 1c1f ce3f
00000110: 7b78 c6e9 2ae6 cfbf 53a9 61c5 200b a43f
00000120: 4402 b578 b6b0 b53f df39 0637 f33d b8bf
00000130: 7e83 f4d4 4708 e0bf 6bb9 03e6 a27c c0bf
00000140: d7b4 e576 b0f4 d13f 83bd e0f0 3398 bfbf
00000150: ab76 96e3 0c37 dd3f 88d0 e91a 4e70 cbbf
00000160: fb1d 3155 d73a cebf 04e0 21d1 dbdd d0bf
00000170: d9d7 3a5d ff28 c13f 2944 5d6e bd83 d0bf
00000180: e5d9 4e9a cf41 c7bf 3229 5326 a7d8 db3f
00000190: 3afd 8ac1 0366 d4bf 541c a3d8 66de 963f
000001a0: 2123 9b0a 760b b23f e0b1 089e fa3d df3f
000001b0: d390 1271 be0d d5bf 1fef b95a 1b93 cdbf
000001c0: 9adb 1922 f2d9 cbbf 08b6 d875 f845 c23f
000001d0: b933 ed39 85b6 8c3f 7b42 4a20 79ee c73f
000001e0: 9f11 df13 521a d33f 4747 8e03 7a03 d2bf
000001f0: dd6c 8947 3134 d13f bc19 30a7 4b71 583f
00000200: 256a e86c 0adf a9bf fbd9 de68 7994 c43f
00000210: eb7c 0db6 bc09 d0bf 4625 02ea 3acd ba3f
00000220: a059 c384 b3f9 c03f e7eb d0fd 9baa cabf
00000230: 8267 75d9 b99d c43f 4e72 4a64 4976 b93f
00000240: 6288 2d0f da37 bcbf 40dc 622f 47b5 b4bf
00000250: b2bb f9b2 e3b1 d33f 7b8f 6cb9 b191 c8bf
00000260: 9882 29ee 5ff5 8c3f ca26 19a3 f0d5 98bf
00000270: c542 cf44 8278 b83f 7483 5c56 ae50 bd3f
00000280: b74f 7e68 86af a4bf def1 d0ef 0911 c13f
00000290: 2e45 8e4e aa43 b03f 9a6a 7519 08bd ab3f
000002a0: 6d92 6002 1bf6 c13f 9ec7 d4ab 2c18 c93f
000002b0: 133d 8907 3135 c83f b50f 3b95 3cf6 d23f
000002c0: e0be 0739 d21e 79bf 37ba 163d a8e8 cf3f
000002d0: 1b97 4054 5525 cbbf aae7 23fb 645a aebf
000002e0: 095f 3dab 3fec a7bf 9469 4807 a8cb 833f
000002f0: 70ba 734f 2ec4 c73f 2259 3c24 6ccf 9f3f
00000300: 86c7 972f 014b d03f c954 5c7f 8afb c03f
00000310: d459 a0b6 bbb0 c63f 77f2 bc8e f05c b1bf
00000320: 29dc 81f4 b4a6 d3bf 0f01 670b 3624 babf
00000330: 19d2 0bd1 900b 8abf 505b d6f2 513d cd3f
00000340: bb85 a77a 83e9 d4bf dc81 86cd 8630 c33f
00000350: 7259 984f 08f7 9abf c94e cfdb 537c d5bf
00000360: 21b0 16ee 5d0b 973f 6bac 3af3 53db 943f
00000370: b338 ebb8 d0c2 bebf d520 b077 8267 c53f
00000380: 3084 925f de1e c3bf 2ecc ad33 2af3 ce3f
00000390: 8134 5601 b05a c83f 9868 146f 57cd bb3f
000003a0: 731b 5731 cb7f d6bf df05 af1f c6cd cabf
000003b0: 8bc9 5608 95a9 9abf efbe 1bde 0548 b1bf
000003c0: bb95 d8bd 8b90 98bf 3968 9d99 4921 9e3f
000003d0: fa72 9dcb 8bb9 c5bf 484d 9fe5 a32a b63f
000003e0: 0e1d e3af 1be5 cc3f 18b1 3687 68c4 b9bf
000003f0: 6adb 57d8 70cd c23f 3014 7bcb 1595 aa3f
00000400: 6c55 5dcd a0c3 a23f 2fae 1a0e 59e9 c53f
00000410: 9d71 5740 e0b7 bc3f fc99 0bfa aff0 c03f
00000420: 5d22 ae33 134c 90bf f491 e078 0429 9fbf
00000430: bec2 11d0 4713 b53f 5df8 9bea 8d20 d03f
00000440: 0321 5631 acb0 c83f ce6e 3ab4 d490 c5bf
00000450: 754d a19b 723a c73f fd26 aa73 3367 bdbf
00000460: 2e9a 5f30 0164 d93f 565f 466c b4cd c4bf
00000470: ecbc 62d0 f3ea a13f 8bc5 7d9c a5c0 99bf
00000480: f1a3 6a10 9fdd c3bf cf44 0dd2 020c cc3f
00000490: 77a1 e38d c565 9d3f a311 fe85 a103 adbf
000004a0: c972 46ac 0005 a8bf 508f 904b d8c5 733f
000004b0: 6995 14e5 bce4 d3bf a778 86f7 86fc c6bf
000004c0: c413 be92 5875 d5bf 8f6c fe47 2a81 b6bf
000004d0: bed8 aca1 4c5d c7bf 3329 7fc6 21c1 b2bf
000004e0: 0a53 d3d8 3ee3 d23f 24fd 30ae e61e a93f
000004f0: ecaa a5ee e69e c2bf 54b5 0a60 9f41 d0bf
00000500: 0b34 bf00 3fae a3bf 1609 2de3 0325 d8bf
00000510: 3e5b 8483 48a4 9dbf 7bb5 f044 4ead ac3f
00000520: f0cc b394 e12f a33f 7899 739d 6f21 90bf
00000530: 5838 5fa7 8bda b83f a25d caef 7cb2 bdbf
00000540: ad30 8952 ad0c b73f 7511 56d4 81e7 4b3f
00000550: d60a 8725 78f1 a93f 7ff6 5555 83cc c9bf
00000560: 6615 8834 48fe d03f 68a5 a6fe 4ffb b7bf
00000570: dba0 6a46 48d3 d8bf a0d5 a9c9 3f00 c6bf
00000580: d6d1 6277 aba8 c8bf 6507 4d90 df77 b83f
00000590: 135a cc2e ebde b0bf a9b2 a213 670e d5bf
000005a0: 4f71 7e79 9815 ab3f f0b9 9d30 9858 bfbf
000005b0: 4c5f fb45 9af7 9dbf e6ee 3d6a e2ad c9bf
000005c0: fabf bce7 daef a53f 9591 3fa6 1265 cdbf
000005d0: 24ed 3e4f 0abd bfbf 607a 6313 e1d6 a5bf
000005e0: 0bf3 903b 12c3 c2bf 9b55 154d c658 c4bf
000005f0: 66c6 4e63 3388 c43f e1da 23d5 54b4 a23f
00000600: 9adc ca7e b5d5 8b3f 49cf 4340 0c9b d2bf
00000610: 8124 747a e442 dfbf e548 14a2 dc16 a63f
00000620: d627 adb0 fe12 5b3f 427e 6e8b 24ec b6bf
00000630: 8423 1da6 ea61 c73f 7a58 f147 becc a8bf
00000640: 7c6c 3e1f 26c1 b1bf 488d d822 245d d2bf
00000650: d845 b259 1c3b c5bf 1802 fa44 7deb cbbf
00000660: 1776 5951 f1e9 c0bf 106c 9b0a 8219 c5bf
00000670: e413 9953 e52a d5bf 3ea8 1c04 f34c c4bf
00000680: 4136 8133 20be c23f 6066 d19c ceec 8a3f
00000690: 2ac9 1aca 7a48 ba3f 1128 106f 7f5a 64bf
000006a0: 96c9 dc8b 2270 993f 25b7 d4f9 336f 893f
000006b0: d77b 3af6 d785 cc3f a452 14e7 36e7 bb3f
000006c0: 32e7 ef5f ca4a b53f 9b00 f67d 39b4 943f
000006d0: e5cf 6204 5b52 b23f 42df aa05 91ac d13f
000006e0: be80 192c 8796 c33f 2221 fdf6 631f b03f
000006f0: 795f de7b bbba 943f 9be3 87a2 1c42 81bf
00000700: 0878 4150 aaeb c1bf 28a1 12f6 20da b5bf
00000710: 2e25 78fc 3506 d1bf 8ce0 d606 61bd 983f
00000720: 3869 246a 1783 903f 1a29 35e1 b567 bdbf
00000730: d4ef 3c81 b401 c73f b533 34be 34e5 bbbf
00000740: 33a7 8226 6c24 c4bf 8a72 2bec 9550 c63f
00000750: 7e30 9d48 ab55 a93f 5017 09a7 680e c83f
00000760: a7a8 2396 930c b8bf b797 af25 89e4 7fbf
00000770: 910d 6f32 8fb9 b2bf ba42 3112 4c25 cfbf
00000780: 0eb4 4789 8c46 7a3f 9b9b 5218 6543 bebf
00000790: de5c c7f9 078e ab3f 045e 648d 5870 d2bf
000007a0: 743c 3039 c575 b53f bb13 caaa eb00 a4bf
000007b0: ae93 56be d739 acbf 64b7 14a1 3634 acbf
000007c0: 8eab cfa6 27b1 943f bb1b 490f 1022 c1bf
000007d0: b6e0 8392 4629 40bf d380 4e11 a5d3 9c3f
000007e0: eac8 81a4 fb88 c4bf 1224 4a9a 5051 8e3f
000007f0: 5f55 9e09 a37c 9fbf 4ea3 6261 fbc4 cc3f
-0.34215536115196804 -0.2671086685462107 -0.08791654796144449 -0.44428680301440365 0.2826190042357412 -0.27044014303227226 -0.3607413295566983 0.07822674944632228
0.256863097565848 0.24661854262829094 -0.15227913709731417 0.4517384556898314 -0.34478826647040206 -0.30228287941298776 0.21208995703364325 0.15490211971808676
0.3677859453928805 0.3089477199840325 0.24034809647245517 -0.12108203504493875 0.512219768390049 -0.12728060524146467 0.07555457214383944 0.2200525649984215
0.011451094091226901 0.022646287582727857 0.07635605626532088 0.19648779399719632 -0.025686219862223185 -0.03312772855451209 -0.1510688015874733 -0.07954578465285954
-0.07043142073320668 0.23532442907582965 -0.24921165861900704 0.03914739999238983 0.08472767302465295 -0.09469528287284089 -0.501010814598075 -0.12880359870127775
0.2805596505266527 -0.12341618185813812 0.45648500657430685 -0.21436477960708467 -0.23617068919905634 -0.2635411779697281 0.13406364490737024 -0.25804076936498405
-0.18169589075632966 0.43509844534550546 -0.31872648144413385 0.02233277032135235 0.07048738249717391 0.48815789635662377 -0.3289638618682719 -0.23105184488292083
-0.21758867898071516 0.14276033167099933 0.014020005064276352 0.18696512295402443 0.29848148289263493 -0.281462195846974 0.2688105772592289 0.001491855506857583
-0.05052979068223732 0.16078107472067402 -0.2505943086488986 0.1046940633115315 0.13262027723858427 -0.20833158391346204 0.16106341474624847 0.09946116159921667
-0.11022723074486998 -0.08089108378304477 0.30773251035764837 -0.19194623521718399 0.014139890151626575 -0.02425361628983217 0.09558881931230719 0.1145123444407668
-0.04040164971880194 0.133332483384847 0.06353248994698354 0.0541765719487632 0.14032304397655385 0.19605024709886448 0.1891232764050775 0.29627909253417367
-0.006132908995354319 0.24928763373232396 -0.21207682241327394 -0.05928340497662472 -0.04672430959061386 0.009665787431960372 0.18567446593756953 0.03106469126859069
0.2545779194616603 0.13267642229826596 0.17726847092917686 -0.0678243969422939 -0.3070499789968744 -0.10211503771188667 -0.012717372302611317 0.2284338412980227
-0.3267525384709093 0.149918413500031 -0.02633297906694438 -0.3357133528308905 0.022504298836494855 0.020367919655353377 -0.1201601458990094 0.1672213634885852
-0.14937953631036427 0.24179580233939774 0.19026756348867838 0.10860201322467089 -0.351549909767008 -0.20940472170882082 -0.026037529596302938 -0.06750523254936146
-0.02398889871814956 0.02942385673609513 -0.16972491686001218 0.086588138160825 0.2257418259452852 -0.10065320302118541 0.14689455569870385 0.05191867932220651
0.03664877421276 0.17118371189768442 0.11218072481955806 0.13234519681209622 -0.01591520312243443 -0.030429906728516046 0.0823254473668937 0.25198696051655195
0.19289162072187346 -0.16848238754470518 0.18147118186116598 -0.11485597204059768 0.3967287990948617 -0.16252761160716983 0.03499566954394048 -0.02514895217558925
-0.15520084668722192 0.2191165471690852 0.028708540711620736 -0.05666832695627313 -0.04691316702812782 0.004827351477647415 -0.3108360516656235 -0.17958151899523964
-0.3352872307808037 -0.0879084039465161 -0.18253476995750434 -0.07325945945845973 0.295119964355124 0.04906388164863021 -0.14547430660908078 -0.2540052831562509
-0.038438767281697116 -0.3772592276110499 -0.0289470033904664 0.05600971786075611 0.03747467937673743 -0.015752548203545186 0.09708474003056844 -0.11600476125965156
0.09003718628918263 0.000851572411804598 0.05067038972949482 -0.20155374209200613 0.2655201447490384 -0.093678474112172 -0.3878956496869372 -0.17188260409208755
-0.1926473935069583 0.09557912133189246 -0.06590146915946375 -0.32900406758816786 0.05289913638191256 -0.122445594662828 -0.029264841576917264 -0.20061903178781576
0.04284557417702213 -0.22964699857324136 -0.12397827563011227 -0.042655023209353216 -0.14657810123926426 -0.15895918620905722 0.1604065165425254 0.03653206922347408
0.013591211254022451 -0.2907133700930343 -0.48845779379241355 0.04314317205911936 0.0016524779518527397 -0.08954075244991436 0.18267567740465662 -0.04843706730086779
-0.069353468540088 -0.28693488505287634 -0.16586641673761338 -0.2181240641402986 -0.13213936302320015 -0.16484094160009066 -0.33074315227378137 -0.15859830570963313
0.1464271785247764 0.01314698616095028 0.10266845163531416 -0.0024845589582627244 0.02484182337429671 0.012419134198889356 0.22283458254693642 0.10899680272661755
0.08317246286597138 0.020218752205892625 0.0715691457469912 0.2761576228472117 0.1530312505083255 0.06297898082732847 0.020243577418653545 -0.008426879606291673
-0.1400044338105888 -0.0853596306575396 -0.266004082252567 0.024159923593942298 0.016125074246795296 -0.11486374614938591 0.17973953543139365 -0.10896615642214054
-0.15736152534855705 0.17433427840923726 0.04948172818566919 0.1879397216418348 -0.09394190230856002 -0.0077863080323136635 -0.07314391118329967 -0.24332571876813863
0.006414936990478471 -0.11821586459937665 0.05381798671776904 -0.2881070500165779 0.08382828375055046 -0.03906952342825983 -0.055128805145876356 -0.055085856593321464
0.02020704227099262 -0.13385201212278539 -0.0004932016936711945 0.02815111082202366 -0.16043038876120558 0.014803533276124301 -0.03074888941008191 0.22476141219274343

NeuralNetEvolution.2.bias f8 [42]
00000000: fad1 6e4d c573 46bf a121 20b9 fe1c bebf
00000010: 8899 61ef b504 a0bf a158 141b c79f cb3f
00000020: ce42 defa e64d a73f d6e6 da13 df0e b0bf
00000030: 6ad9 e5f2 e45c a5bf 9c34 6261 acf8 973f
00000040: 7ff2 5c63 a930 bdbf 09cd d899 e91d b13f
00000050: 62f1 aa56 110f c1bf a056 4b31 df4d d33f
00000060: 02b5 7b73 712d bcbf 1e5a 5895 aca3 b03f
00000070: 8c73 fea3 f2ab 8f3f 2976 835e 839f c9bf
00000080: ec72 2e23 d9d5 b0bf 1eb3 e2b6 d543 8cbf
00000090: 5315 cfc3 041f b1bf 3183 609e cc21 5a3f
000000a0: 299d 6acc 7cc6 c0bf 0334 b3d6 7945 92bf
000000b0: 3779 f51e 95f8 923f f409 e43f c62b cb3f
000000c0: 566a 381d 5e63 81bf 8f97 791d f204 bc3f
000000d0: 4132 38b6 0c6f 98bf 2d87 8f82 b2fb c5bf
000000e0: ebdb dfc0 3e05 c33f 0f16 8098 85ee c73f
000000f0: a5db cd98 129a c13f 313d 8dda eb97 c9bf
00000100: 49d8 96be fba3 883f e3bb c6eb 0fdd c53f
00000110: 4069 5c54 064d c5bf ec59 9b18 8e55 c3bf
00000120: 4a5a 7c59 59f5 99bf dafa 68a2 a7df b73f
00000130: 39eb 7788 caad 833f 7b2a 3e3f 928e c5bf
00000140: 6026 9125 da95 c13f 8dbc bf5a e9e0 bdbf
-0.0006851876631715486 -0.11762992877641533 -0.03128593966612231 0.2158135301803599 0.04551622211795846 -0.06272691950553208 -0.041724352503410625 0.023409551090072797
-0.1140237681947358 0.06686267858531293 -0.1332723305876114 0.30162792028327523 -0.11006840772070706 0.06499746938821047 0.015464683179567527 -0.20018045535009435
-0.06576306446954633 -0.013801259654735495 -0.06687955646983328 0.0015949724415877493 -0.13105735760948647 -0.0178431546490181 0.01852639199693692 0.21227338905016746
-0.008490309969649317 0.10945046634296161 -0.023861120816990548 -0.17174369215995836 0.14859756868074156 0.1869666094427633 0.13751442395343108 -0.19994877025099236
0.012031523469755128 0.1708087826968657 -0.1664131080550053 -0.1510484333181944 -0.025349994742180727 0.09325645175065791 0.009608824052511277 -0.1684134300997647
0.13738562425924083 -0.11671312776137395

NeuralNetEvolution.4.weight f8 [42, 42]
00000000: beea e8ce 777b 9c3f 24ee a9a8 3e12 a33f
00000010: 70b1 64a4 7620 c3bf cf80 81f6 cdf6 b3bf
00000020: aa9a c646 3a31 85bf a6a3 8961 e9f1 c43f
00000030: 2a89 e682 a369 c2bf ea76 2a1b 773b d5bf
00000040: 00d6 90ba 1b7b b3bf 9a71 7d55 b518 bebf
00000050: 71bb 91d6 7d74 bdbf 83a1 31dc 8066 bbbf
00000060: 3c71 52ac b890 c83f ea9f 5c6b 5420 bbbf
00000070: b1fb 1678 4cbe a13f 82e7 fb14 6abd c0bf
00000080: cb0c d913 eee6 c13f 1e6a 7993 d646 9f3f
00000090: 407a de72 5423 b03f e36e 5e9b 3a35 cdbf
000000a0: 0f06 e9da 016a a93f d175 a90d 4d66 97bf
000000b0: f77e 05b3 239a b0bf bd2a 6139 bde8 8a3f
000000c0: 3c60 7423 1ac5 cd3f 34d5 6ba8 1049 c7bf
000000d0: dbe6 d935 1c00 b73f 49b7 5e34 f9cc c4bf
000000e0: 6b18 8e4b 14ad c23f 4c84 2d24 8921 be3f
000000f0: 4efc 8d77 bfda b0bf b465 374b 97ba c53f
00000100: 81a0 53b7 1f15 b03f 7203 d938 7d37 9a3f
00000110: 0c00 1439 3eeb af3f f5ef d919 c8e8 a5bf
00000120: 1861 f78e 23fa b73f 8d49 c06e e7b2 9a3f
00000130: 3bce 222f 375f b53f 1059 fde5 b2bc a7bf
00000140: e611 8d9e 1445 99bf bb8d 507f c998 96bf
00000150: 6f5a ee57 a224 bebf f817 f581 4506 b0bf
00000160: 4d58 02f7 d6b7 9e3f 38b0 e2a1 e019 cb3f
00000170: 8ed4 6018 c1ee c0bf 30a1 a50b 2fcb bdbf
00000180: 66eb 2945 5a33 c63f 7c82 5f87 ecaf acbf
00000190: 8a02 c869 db48 c83f 74d8 5666 26d5 b23f
000001a0: 7e53 688b 1de6 acbf c9a2 2d4d f93b d0bf
000001b0: c4d0 3c39 9159 b93f 1c1f be5d 27c3 7fbf
000001c0: 7fda 6976 99a0 bc3f 713a f7e2 e9f2 cd3f
000001d0: f424 cfb0 c54b a0bf 564d 3bc9 8223 ad3f
000001e0: 06a8 ad60 950e ce3f 12f5 1ea6 f982 963f
000001f0: 9892 ef4c 65cd d13f 489a c34a 1b8c b9bf
00000200: 891b 91fe bd37 afbf 7041 9fce 46d6 b83f
00000210: 2376 6dbe aed0 c73f 9408 b219 fee9 c43f
00000220: d6d3 5f72 9259 d7bf a555 7f59 b9ab b8bf
00000230: 072c c9e9 d0a5 c43f 1bff c177 b844 a23f
00000240: b404 6bc9 4e71 c93f 02c9 6be8 51ea 823f
00000250: 5ade 760f c814 bbbf b558 4e0b 4f21 cf3f
00000260: c3af 5887 a644 b6bf 867b 5af5 2f13 a2bf
00000270: 95d1 d3ae e0ec 983f 5d2a f972 d677 ccbf
00000280: b84d de9f a388 253f fa53 7122 b62d ba3f
00000290: 6b71 d565 6232 d2bf 68a7 0216 f859 aa3f
000002a0: f174 4d3f 1c56 c6bf 17d8 84fe 9ab1 c33f
000002b0: 31d0 834b 840b dcbf f3c0 ef49 de72 d3bf
000002c0: f3f8 e9ae bf52 adbf 3e3d cd70 9688 c43f
000002d0: 80ef cd79 3a1f d6bf 98f3 7991 6157 b03f
000002e0: dfa9 91cf f2c4 c9bf 3ab3 69a7 dc70 a8bf
000002f0: d689 bec3 a64f cb3f c088 1699 e8c7 dcbf
00000300: 253c 0ed5 e2f3 e03f 53bb 983e d7aa b9bf
00000310: 810e ad39 d4ed c4bf dd04 fdb9 2625 d13f
00000320: 6207 9bd2 b264 d73f 2909 0b7f 7de6 ac3f
00000330: fc09 565f 4095 bd3f 0daf b640 f538 d93f
00000340: bb02 6ca8 13e7 d53f c422 9a24 b1b7 c8bf
00000350: 7ce0 1eb7 78ff d63f 37bd de6c ae46 d6bf
00000360: a4ff 9515 2527 d7bf f7d6 caf2 a80e d1bf
00000370: 31b0 dde7 cad5 b4bf 9fc2 a6f2 e3bc b13f
00000380: 459d 316e 7d28 d03f c6c2 bba0 9d4c d4bf
00000390: 5c0f ab8e 251e dbbf cbeb 49cb 150f da3f
000003a0: 43ce 9df7 e4cc c3bf b88d 7370 68d1 ce3f
000003b0: 3ee7 7d6c 8622 c23f 4009 330b 379a c83f
000003c0: e286 7bbf 978b d2bf 5a43 bb7d 8207 d3bf
000003d0: 55b4 b6e3 0ad0 d83f 0938 dc08 b222 d13f
000003e0: 5242 92fe dcde b7bf 0f96 c457 b074 d63f
000003f0: 47ba 7d44 6717 e0bf c9ff 0e4f 731b 6e3f
00000400: f336 9e6f a8cf 9c3f 058d b0e4 b0bb b4bf
00000410: 03ed 0b46 8a80 c63f 7be2 760f 9ead bc3f
00000420: 6a83 9d1d e744 c03f 7af7 6f2b 793e d43f
00000430: 41c8 7000 6880 b73f e1d3 0bb6 48d8 b7bf
00000440: 41ef 89eb cb02 cf3f 383e 7d68 1bb2 e0bf
00000450: 8dce 8f3d 8996 d53f 0e9b af11 31c0 963f
00000460: 81a7 e9b7 e911 c6bf f142 9e1c ea50 d53f
00000470: 8c6c e470 9aee bdbf c752 bfa0 c5f6 cc3f
00000480: c0d1 dfbb c014 db3f 30e0 563f f272 c53f
00000490: 71b3 53fb 7afc dd3f 7b42 f86a d607 e1bf
000004a0: b35b efcb fd91 adbf 0cc4 90a6 1db5 dabf
000004b0: bb35 102c 5b68 a13f df15 360b a827 aabf
000004c0: d8b9 0dc5 aec7 c4bf 704e 601e 566a bf3f
000004d0: cd86 88d7 ad18 d7bf e736 1ed9 608b d3bf
000004e0: fe9d b178 f60c dabf 92bf fb91 d636 d03f
000004f0: 650e 14c2 72ae 913f 81a6 8c00 adc6 b23f
00000500: da56 10ea 9c00 a0bf 860b dbf2 6ad2 d23f
00000510: bfa8 4fe9 68bc c5bf 5a19 500f 6188 b7bf
00000520: e175 b590 756e d53f 8884 be4f fc8b e33f
00000530: 55f7 3896 65de d3bf 8b11 c64c 2a88 c43f
00000540: d5a1 36d1 0c0f ce3f dea9 3700 0c8b a4bf
00000550: 1358 b79d ac21 cabf 5359 88a8 0927 aabf
00000560: 8785 f873 0b18 bcbf afe8 9566 feb5 a5bf
00000570: 6892 77f2 cf30 793f ce7a 00f4 aea3 c83f
00000580: 8a50 dbf8 cffd b23f ac56 50b4 ac0c bebf
00000590: e152 923f 7608 b03f b9d4 8f2a abe0 b03f
000005a0: 8f72 e040 027f dc3f 23c7 f4c4 59fc be3f
000005b0: 8029 04ed bd89 97bf d556 cb37 54cf b23f
000005c0: 887b bf0b 53fa b43f d623 63a0 e151 39bf
000005d0: 52d0 15b1 fea4 c33f 58a0 db09 8963 b53f
000005e0: 568f d3ad 1825 c83f 9be8 6a8b 2188 983f
000005f0: c397 2069 6a8b c13f 2cb3 907d 38b1 babf
00000600: 588f 035f 7774 c4bf a23e c0e0 83b5 8fbf
00000610: 719f d049 78fe abbf 56b2 119f 1484 a63f
00000620: 7cb3 a91c 0d84 ccbf 75d8 44be 0575 c7bf
00000630: 316b 2b88 b43f d1bf c9c4 e303 7215 d83f
00000640: d030 b49a 328f c3bf d6cd 7023 3f2b ad3f
00000650: fc47 b3fe 56e8 783f eec3 05a8 1c44 9b3f
00000660: fcfe 6029 0c34 c7bf bbdf 21f2 ca8a c3bf
00000670: 8037 07a1 198f 743f 3bcc 85ea 2b1d b63f
00000680: c043 cb7e 6acf c2bf 74a0 139a 96f8 ac3f
00000690: 2c96 d41a d18b d2bf c317 5022 7590 89bf
000006a0: 19b0 5550 c77c c63f bc3b 4a4f 2c5f 873f
000006b0: afe3 75e2 51e5 bb3f e0b8 d5ea 96ad 793f
000006c0: 9eb3 b733 61e7 b1bf aad2 8c08 022f cb3f
000006d0: 58f1 261f 8d68 65bf 5b73 46b9 cfe1 c43f
000006e0: 78d7 d95b 78b6 d03f 51e5 462d 0fe4 bc3f
000006f0: eb49 e0db 5d24 c33f e5bb 2cfe 04a6 b1bf
00000700: 5db2 0067 6424 a83f ad08 39cc 6e86 cebf
00000710: 4594 f182 22fd b2bf 9250 4f6b dbfa b63f
00000720: 045a f607 fb95 a6bf b4a4 d5f5 8c6c cdbf
00000730: 612a 05a8 f128 c0bf d751 d19c 3bfb 87bf
00000740: bae4 c509 7e95 bbbf abb3 414c 4a61 bdbf
00000750: 292e 8134 9ec2 903f 4cf0 ca38 d753 92bf
00000760: 4d8b 3a0e 4f37 b93f 77f8 654a e516 89bf
00000770: 1119 9dd3 3c36 b7bf b18f cda0 b5c1 86bf
00000780: 8849 c791 e13b a7bf 971f 5f10 291f 483f
00000790: da9d d4a8 a797 d53f b289 2d86 7c7e c13f
000007a0: e504 9a0a 514e 83bf c9bf b6c2 ba4c c6bf
000007b0: 07d0 4e4c dbe6 c83f c2e5 2c84 f4f0 c03f
000007c0: e998 bf8f 2e44 c8bf d4a6 c1f2 be8a d93f
000007d0: 6a70 6bb6 3424 7ebf 18aa 784e b554 babf
000007e0: c19f 218b 97e1 be3f 1203 305e 02d7 b53f
000007f0: 2c8f 9ce6 a69b b1bf 0651 6eff d27e a2bf
0.027814743045591277 0.03724857148059993 -0.14942820574777782 -0.07798468845567473 -0.010347800526529245 0.16363255751209954 -0.1438488377726313 -0.3317544713298576
-0.07609723381832367 -0.11756451928289949 -0.11505877007014732 -0.1070328271467869 0.19191654600298047 -0.10596206303728165 0.03465498891772912 -0.13078046822175443
0.13985992402203914 0.030543663741221853 0.06303909115238415 -0.22818691812869138 0.04963689610714194 -0.02285118480573606 -0.0648519813598759 0.013139227212510258
0.23257757884198493 -0.18191726897900085 0.08984543146825834 -0.1625052934372724 0.14590696038448256 0.11769921429869717 -0.06583782833875881 0.16975680515933578
0.06282232499836661 0.025602299303730765 0.06234163710360016 -0.04279160800521701 0.09366056671513368 0.0260730897280808 0.0834841241910959 -0.046361532759577995
-0.02467758386343801 -0.022067211528463675 -0.11774649283175063 -0.06259569571292889 0.029998167825930278 0.21172721771779535 -0.13228620233863747 -0.1163815883097683
0.17344215752731457 -0.05602969315055348 0.1897234217176627 0.07356491087452516 -0.056443141238708514 -0.2536605123228069 0.09902293822671299 -0.007754472517156132
0.11182555333093978 0.2339756353598719 -0.03182809623064911 0.05691155153695131 0.2348200532972557 0.021984005703179106 0.2781613589598151 -0.09979410720152615
-0.06097215397362905 0.09701960129246401 0.18605598734113568 0.16339088682804415 -0.3648420445381907 -0.09637030062670833 0.1613103047878612 0.03568054639708703
0.198770378445294 0.009235992341448899 -0.10578585031077506 0.24320400287678515 -0.08698502354007957 -0.0353026377681465 0.024341116591089913 -0.222407156123455
0.00016428944939815364 0.10226000157247475 -0.28432521767333324 0.05146765965157735 -0.17450287905641163 0.1538575880783248 -0.4382029282999183 -0.3038860055958274
-0.0572719479578029 0.16041832454582478 -0.3456560315605586 0.06383333017033832 -0.20132289061741823 -0.04773606818785088 0.21336826856447882 -0.44970145177843435
0.5297712479822435 -0.10026307371366032 -0.16350796524249137 0.2678925339024099 0.3655211502738124 0.056446000822250327 0.11555864646474129 0.3941014415711244
0.342228807901886 -0.19310583388530322 0.3593427456176028 -0.34806404716342193 -0.36176421268464254 -0.2665197726267787 -0.0813872161940601 0.06928848909479733
0.2524713111983668 -0.3171762532866008 -0.423715009045045 0.40717072346131705 -0.15469038096090246 0.2407656239584932 0.14167862222148558 0.19220626875728364
-0.2897700662561943 -0.2973333576056142 0.38769790876069027 0.2677426420713123 -0.09324437346573092 0.3508721215351622 -0.5028568589894541 0.0036751987576905992
0.028135902226089148 -0.08098893721812679 0.17579773349994107 0.11202419164227166 0.12710274644907865 0.3163130687897745 0.09180307398563149 -0.09314398235785816
0.24227284432333288 -0.5217415848546301 0.3373129941166802 0.022217528061356843 -0.17242166023362063 0.3330636291002938 -0.11692204719695293 0.22628088330261262
0.42314165446375895 0.16757038204900843 0.4685351805081189 -0.5322067345860683 -0.057754450935753175 -0.4173044325462463 0.03399929917223284 -0.05108380448204363
-0.1623438322234978 0.12271631471258515 -0.36088129089521886 -0.305381977109262 -0.4070411852503354 0.2533470559710561 0.017267029853441324 0.07334405196584194
-0.031254676410908025 0.29409288135882894 -0.1698123110975924 -0.09192473052835251 0.33486689693185495 0.6108380849365327 -0.31044902486961706 0.16040543316570352
0.23483429160593397 -0.04012334349302525 -0.2041526575182507 -0.05107908422739862 -0.10974189359014562 -0.042404127142576235 0.0061500666556396424 0.19249522127298352
0.0741853697357461 -0.11738089945023472 0.06262911846199472 0.06592817105395711 0.4452520021020882 0.12103806551456535 -0.022986381141018253 0.07347608911671995
0.0819446471864308 -0.000386350235555497 0.15347274443377273 0.08355003824874652 0.18863209235780215 0.02395679868161747 0.13706712849778854 -0.10426667275960416
-0.15980426921225432 -0.01548293141971097 -0.05467582608281319 0.04397644464265642 -0.22277988338046473 -0.18325874128794664 -0.2695132570058148 0.376308921621853
-0.1528075461759557 0.05697057063698778 0.0060809515227493414 0.02662701392677385 -0.18127586384252214 -0.15267311880938714 0.0050192834027721345 0.08638262248659682
-0.14695483389962583 0.05658407812899294 -0.28978374118955474 -0.012482562169690575 0.17568293974488894 0.011411997003305412 0.10896789339848455 0.006269063492579913
-0.0699368239654192 0.21237206857189977 -0.002613330486580672 0.16314121767654907 0.2611370942098499 0.11285490851777992 0.149547321664229 -0.06893950658262289
0.047152650426458755 -0.23847756358924724 -0.07417503067843352 0.089765275667846 -0.04411301109501056 -0.22987520221366753 -0.12624951080427407 -0.0117096574050856
-0.10774982203101305 -0.11476578103766026 0.016367408709170448 -0.017897951928475472 0.09850019547824936 -0.012250701268154736 -0.09067135015820706 -0.011111659021203342
-0.04537873177072799 0.0007361364848685767 0.3373812817321472 0.1366725592770997 -0.009426720748935977 -0.17421659953606497 0.19454518533677875 0.13235336736560838
-0.1895807458778969 0.39909337717709303 -0.007358747395041923 -0.10285504499248821 0.12062976023446394 0.08531203078747421 -0.06878131036915808 -0.03612384193471212

NeuralNetEvolution.4.bias f8 [42]
00000000: 54f1 149b 0b8f c03f 6a9a 46f4 d5d9 763f
00000010: b25e 1bdc d877 cebf 8081 35eb c391 bdbf
00000020: 3236 e9a2 4ae4 c5bf 9ff0 6aaa a565 9b3f
00000030: b1d3 ef7f 7573 9a3f 82a7 9ce3 949a b2bf
00000040: beb7 a5f2 a77f c0bf cfa3 89fa b509 b43f
00000050: 9b6c 7d05 d94b c73f fcc5 556a 9040 bbbf
00000060: 6215 6f11 5d14 c1bf 6cda a540 7d73 b53f
00000070: 888f 5c63 e005 913f 8a94 8784 e6c7 b73f
00000080: 1b5f 998e 0280 c5bf 53c9 b0f2 6698 a03f
00000090: b3a3 c44e a468 c23f 710c feae e6e2 aa3f
000000a0: 63ee 9dbe 1697 b43f 0274 bff9 b036 90bf
000000b0: 32ca 49ff 3a32 74bf bf6a a782 3d8f 98bf
000000c0: 6281 4f97 cd9a c1bf d697 073f 1940 ba3f
000000d0: 3adf e7c0 6375 b3bf e6e2 fdbf ea3a 8b3f
000000e0: a55e 2075 a88a 9e3f 4adc 6eae e707 a53f
000000f0: dbe0 64a3 83a1 c8bf 6697 1d4b 35e2 be3f
00000100: 67a5 4bc4 6a54 b5bf afbd a508 2313 bcbf
00000110: 61d4 b85c 846e af3f ca48 ef19 07e8 63bf
00000120: 8971 d0fd 87ab ba3f f6f3 2727 be68 9f3f
00000130: 2843 0a8a 891c 66bf 1ede 2fbc 1e78 a8bf
00000140: 0047 5cb4 45e4 bd3f 426f ef69 54e8 a9bf
0.12936539718965412 0.0055788381181743705 -0.23803244349868674 -0.11550545208365826 -0.1710294051612649 0.02675494053504279 0.02583106606830982 -0.07267122799808415
-0.12889575336470033 0.0782731758751105 0.18200218933165932 -0.10645392032690632 -0.13343394614472986 0.08379347637478823 0.016623979630039837 0.0928939889486903
-0.16796905482146304 0.032412736058534584 0.14381841512775181 0.052512368070005595 0.08043043283208244 -0.015833630793952842 -0.0049307159975904725 -0.023983918284879332
-0.13753671539508178 0.10254056729135583 -0.07600997409451518 0.013295968994257956 0.029825813435393162 0.041075935404869826 -0.19242902258134262 0.12063916286350959
-0.08331935207720208 -0.1096670051681403 0.06139005309925306 -0.0024299753854189797 0.10417985865246328 0.03067299951543486 -0.002699154502188956 -0.04779144332126982
0.11676440862018111 -0.05060066025882161

NeuralNetEvolution.6.weight f8 [3, 42]
00000000: 9c16 5aca 4928 bfbf 050b c371 b714 be3f
00000010: 2e9a 53fb 96da e6bf f2d3 7b39 946d cb3f
00000020: aa22 f008 91de d8bf 7c9e dcf6 daeb c0bf
00000030: 576f be5a cb8a c5bf 24ec 0b37 dc83 a3bf
00000040: ab69 ffac 4666 cd3f 6f72 9cc8 4cce 773f
00000050: 9e7e 911d 8372 cc3f 2e27 a1d0 f269 acbf
00000060: fe40 b926 3815 cfbf 120b 38da 3ac5 a5bf
00000070: b50d 2efe 71c0 a53f 5254 9865 2594 c83f
00000080: ad2a 1e08 9e6e c0bf 7d8d e3cd a490 c33f
00000090: ef83 48a8 40ff c03f 47f5 b9cd 5f84 b73f
000000a0: fdce f7ff 7708 e4bf 128d 3d81 fc8c d43f
000000b0: cf60 595b 5127 cebf f224 348f c50c a2bf
000000c0: a25f 516f 2742 cebf 8ff5 11bb 8531 c4bf
000000d0: afde 5d39 a23c c7bf 6160 a76f 53e1 d43f
000000e0: 6c22 9ed6 fc43 e0bf 3d8e 53bc ce52 bfbf
000000f0: 89a2 1b2c 11fe e1bf a94a 59d9 bcc6 bbbf
00000100: 9000 f597 1b84 c7bf 0ec3 c117 acb7 a0bf
00000110: ff9b c17c 9049 a73f ce42 fe78 0c5e b4bf
00000120: 6256 fad7 93e2 aabf 7cfa 8149 b9ec b93f
00000130: 6691 19d5 8496 d63f dd1d dcef 228b b0bf
00000140: ac38 f849 5dff 93bf 6805 3d4d faf5 c5bf
00000150: ba26 d5ed c52f bcbf 8a0e 6e25 1237 9a3f
00000160: b96d dffc 343b a23f b5e1 89c9 4188 9b3f
00000170: 4944 e46f 3498 91bf da48 9e05 337c a6bf
00000180: cc45 bdc7 356c 8bbf b0d5 33e5 6ce8 c13f
00000190: c4b9 1119 6123 d23f 028d e686 aecc b33f
000001a0: 0763 962c 905e bcbf fdeb aca4 1623 c93f
000001b0: 3a2f 851b 2bcc bf3f ca81 f1d6 9f47 c4bf
000001c0: 82c7 d741 fc19 c2bf d28c 62c7 0695 bebf
000001d0: df1c 503e 4340 a9bf 589b 24e6 bcbe babf
000001e0: 7c60 4631 f933 8cbf 6dbb 7d50 5a5c a5bf
000001f0: bfd9 8d59 0860 a13f c224 debc 5cb5 bdbf
00000200: c789 d8d6 c518 ca3f de13 e5c1 abb3 723f
00000210: 0a85 1016 295a c33f c624 f0e1 1563 893f
00000220: fb20 b97f bda3 9ebf 3cc5 a7fc 4a62 963f
00000230: a6a5 6f20 7010 c33f 6481 5051 efda b0bf
00000240: 0a5c 7300 1fe6 8fbf e4ad ae04 7dec b8bf
00000250: 23df 379b b966 b5bf 3eac 2dda 5efd a7bf
00000260: a862 86dc cc31 703f d8fe 7bee 0e3d b7bf
00000270: 2645 83ea 8ad7 b9bf dc93 f499 76ab b53f
00000280: 57f1 e031 d0b1 62bf dc32 948d 3510 ccbf
00000290: dd4b f4a8 f4b0 a7bf 81cc fa7f 6c9c d53f
000002a0: 306b 6a8f aa20 c0bf 9c91 d5d3 178c d4bf
000002b0: a907 59d2 7736 ddbf d607 2d65 53e6 dfbf
000002c0: 8ac2 25cf a968 b3bf f550 da56 ac37 d13f
000002d0: 6568 a5e7 08f7 b93f 046c 6558 9774 c4bf
000002e0: 5802 db19 f435 ddbf a20d 4e34 f1fe d9bf
000002f0: a389 d8b6 0dc1 c33f d559 fdc4 d7f4 db3f
00000300: 90ce 0e05 a271 d3bf 4e38 c18e ded0 873f
00000310: 67d5 494c 5a62 b3bf 30f3 0684 281d ae3f
00000320: 4abe 467f 53a0 cc3f a434 5dd0 b1ec d2bf
00000330: e8d8 997d 9fb2 d63f 6623 3328 06b9 d9bf
00000340: 52c8 b738 9d40 a23f 6079 6b4c 6a41 c1bf
00000350: c53a db01 4701 7cbf e9b3 25c6 2453 d7bf
00000360: 2f8d 9e0d f09a cdbf 6f62 cc12 c977 dc3f
00000370: 7476 0cee fe96 b93f 1f4e 76ef df97 cd3f
00000380: 87b1 d126 6048 c83f 1a7f b31f 733a b0bf
00000390: 93eb 3834 daf0 d4bf 7246 d2d9 0d1c d2bf
000003a0: 54bd 90fa 0a67 a5bf e32a 859a f3a2 e3bf
000003b0: 13b4 421f 838c d43f 030f e01d 8403 943f
000003c0: abe3 9141 d44f d03f 498c c93a 9f92 d43f
000003d0: ac3b 4c3b 4b06 c83f 87bc bcf2 4a68 9c3f
000003e0: 67b3 305d fd74 adbf 9d56 8185 1c4d d3bf
-0.12170849981529347 0.11750360991849725 -0.7141833218309495 0.21428158575841355 -0.38858438370565784 -0.13219773343847752 -0.16829816752294377 -0.038115388602783434
0.22968371817735309 0.005811977325518399 0.22224463409201162 -0.05549582287546993 -0.2428350628929436 -0.04252036966138041 0.04248386600286428 0.19202105961508892
-0.12837577244166223 0.15285167744796616 0.1327896901794072 0.09186362049691353 -0.6260337828993837 0.32110512372146716 -0.23557488403708368 -0.03525369046298889
-0.23639386115496303 -0.1577613032749636 -0.18153789330584888 0.3262528028840333 -0.5082992736580088 -0.12235729310810313 -0.5622640477641464 -0.10850124651305272
-0.18371910972382866 -0.03265130796433456 0.04548312685874833 -0.07956006959853854 -0.05250989924858797 0.10126836819288515 0.3529369431546655 -0.06462305408432863
-0.019528825416323656 -0.17156914492992859 -0.11010396057568075 0.025600703749218336 0.035607963436372576 0.026886966634693105 -0.01718217785770929 -0.04391631549437287
-0.013389988096295456 0.13990555945899308 0.28340938041847274 0.07734194558593191 -0.110817919622047 0.1963833145217392 0.1242091123760333 -0.1584358024147277
-0.14141801085457578 -0.11946146362111001 -0.049318410259781 -0.10447292917943451 -0.01377100640893069 -0.04172022087629199 0.033935795719048915 -0.11604861842183126
0.20388100615043767 0.004565878798818949 0.15118897988671903 0.012396021802503997 -0.02992149440822887 0.021859332724436728 0.1489391477946757 -0.06584068045822772
-0.01557563991666024 -0.09735852588953936 -0.08359870948322316 -0.046854938634020446 0.003953743209785067 -0.09077542612430578 -0.10094516969117659 0.08464757212330148
-0.0022820535951081733 -0.2192446652701595 -0.04627193987302978 0.3376723527719108 -0.1259968948623622 -0.3210506027883413 -0.4564494661500427 -0.49843296890696587
-0.07581578547775272 0.26902302247732673 0.1014257016699119 -0.15980808082790088 -0.4564180614943658 -0.40618543727779344 0.15432902744312313 0.4368190215804167
-0.30381060117654446 0.011628855449228006 -0.07571949350843497 0.05881620990428471 0.22364276613869755 -0.2956966910176766 0.35465228334159216 -0.40191797185666756
0.035649216817447496 -0.1348088143485695 -0.0068371556969412705 -0.3644496855766293 -0.23129082360274242 0.44481112323550226 0.0999602633641759 0.23119734947668832
0.18970872779335599 -0.06339187168077523 -0.32720046138609254 -0.28296228667850365 -0.041801779829593017 -0.6136415498707176 0.3210761838225277 0.019544662784041666
0.25487238314922916 0.3214490961165138 0.18769207377814945 0.027741595330720983 -0.05753318560196057 -0.3015815070878974
